<?xml version="1.0" ?>
<net name="ctdet_coco_dlav0_384" version="10">
	<layers>
		<layer id="0" name="input.1" type="Parameter" version="opset1">
			<data element_type="f32" shape="1,3,384,384"/>
			<output>
				<port id="0" precision="FP32">
					<dim>1</dim>
					<dim>3</dim>
					<dim>384</dim>
					<dim>384</dim>
				</port>
			</output>
		</layer>
		<layer id="1" name="data_mul_8230_const" type="Const" version="opset1">
			<data element_type="f32" offset="0" shape="1,3,1,1" size="12"/>
			<output>
				<port id="1" precision="FP32">
					<dim>1</dim>
					<dim>3</dim>
					<dim>1</dim>
					<dim>1</dim>
				</port>
			</output>
		</layer>
		<layer id="2" name="input.1/scale_value/Fused_Mul_" type="Multiply" version="opset1">
			<input>
				<port id="0">
					<dim>1</dim>
					<dim>3</dim>
					<dim>384</dim>
					<dim>384</dim>
				</port>
				<port id="1">
					<dim>1</dim>
					<dim>3</dim>
					<dim>1</dim>
					<dim>1</dim>
				</port>
			</input>
			<output>
				<port id="2" precision="FP32">
					<dim>1</dim>
					<dim>3</dim>
					<dim>384</dim>
					<dim>384</dim>
				</port>
			</output>
		</layer>
		<layer id="3" name="data_add_8232_const" type="Const" version="opset1">
			<data element_type="f32" offset="12" shape="1,3,1,1" size="12"/>
			<output>
				<port id="1" precision="FP32">
					<dim>1</dim>
					<dim>3</dim>
					<dim>1</dim>
					<dim>1</dim>
				</port>
			</output>
		</layer>
		<layer id="4" name="input.1/mean_value/Fused_Add_" type="Add" version="opset1">
			<input>
				<port id="0">
					<dim>1</dim>
					<dim>3</dim>
					<dim>384</dim>
					<dim>384</dim>
				</port>
				<port id="1">
					<dim>1</dim>
					<dim>3</dim>
					<dim>1</dim>
					<dim>1</dim>
				</port>
			</input>
			<output>
				<port id="2" precision="FP32">
					<dim>1</dim>
					<dim>3</dim>
					<dim>384</dim>
					<dim>384</dim>
				</port>
			</output>
		</layer>
		<layer id="5" name="328/mean/Fused_Mul_93779379_const" type="Const" version="opset1">
			<data element_type="f32" offset="24" shape="16,3,7,7" size="9408"/>
			<output>
				<port id="1" precision="FP32">
					<dim>16</dim>
					<dim>3</dim>
					<dim>7</dim>
					<dim>7</dim>
				</port>
			</output>
		</layer>
		<layer id="6" name="327" type="Convolution" version="opset1">
			<data dilations="1,1" output_padding="0,0" pads_begin="3,3" pads_end="3,3" strides="1,1"/>
			<input>
				<port id="0">
					<dim>1</dim>
					<dim>3</dim>
					<dim>384</dim>
					<dim>384</dim>
				</port>
				<port id="1">
					<dim>16</dim>
					<dim>3</dim>
					<dim>7</dim>
					<dim>7</dim>
				</port>
			</input>
			<output>
				<port id="2" precision="FP32">
					<dim>1</dim>
					<dim>16</dim>
					<dim>384</dim>
					<dim>384</dim>
				</port>
			</output>
		</layer>
		<layer id="7" name="data_add_823582408696/EltwiseUnsqueeze8824_const" type="Const" version="opset1">
			<data element_type="f32" offset="9432" shape="1,16,1,1" size="64"/>
			<output>
				<port id="1" precision="FP32">
					<dim>1</dim>
					<dim>16</dim>
					<dim>1</dim>
					<dim>1</dim>
				</port>
			</output>
		</layer>
		<layer id="8" name="328/variance/Fused_Add_" type="Add" version="opset1">
			<input>
				<port id="0">
					<dim>1</dim>
					<dim>16</dim>
					<dim>384</dim>
					<dim>384</dim>
				</port>
				<port id="1">
					<dim>1</dim>
					<dim>16</dim>
					<dim>1</dim>
					<dim>1</dim>
				</port>
			</input>
			<output>
				<port id="2" precision="FP32">
					<dim>1</dim>
					<dim>16</dim>
					<dim>384</dim>
					<dim>384</dim>
				</port>
			</output>
		</layer>
		<layer id="9" name="329" type="ReLU" version="opset1">
			<input>
				<port id="0">
					<dim>1</dim>
					<dim>16</dim>
					<dim>384</dim>
					<dim>384</dim>
				</port>
			</input>
			<output>
				<port id="1" precision="FP32">
					<dim>1</dim>
					<dim>16</dim>
					<dim>384</dim>
					<dim>384</dim>
				</port>
			</output>
		</layer>
		<layer id="10" name="331/mean/Fused_Mul_93819383_const" type="Const" version="opset1">
			<data element_type="f32" offset="9496" shape="16,16,3,3" size="9216"/>
			<output>
				<port id="1" precision="FP32">
					<dim>16</dim>
					<dim>16</dim>
					<dim>3</dim>
					<dim>3</dim>
				</port>
			</output>
		</layer>
		<layer id="11" name="330" type="Convolution" version="opset1">
			<data dilations="1,1" output_padding="0,0" pads_begin="1,1" pads_end="1,1" strides="1,1"/>
			<input>
				<port id="0">
					<dim>1</dim>
					<dim>16</dim>
					<dim>384</dim>
					<dim>384</dim>
				</port>
				<port id="1">
					<dim>16</dim>
					<dim>16</dim>
					<dim>3</dim>
					<dim>3</dim>
				</port>
			</input>
			<output>
				<port id="2" precision="FP32">
					<dim>1</dim>
					<dim>16</dim>
					<dim>384</dim>
					<dim>384</dim>
				</port>
			</output>
		</layer>
		<layer id="12" name="data_add_824382488698/EltwiseUnsqueeze8832_const" type="Const" version="opset1">
			<data element_type="f32" offset="18712" shape="1,16,1,1" size="64"/>
			<output>
				<port id="1" precision="FP32">
					<dim>1</dim>
					<dim>16</dim>
					<dim>1</dim>
					<dim>1</dim>
				</port>
			</output>
		</layer>
		<layer id="13" name="331/variance/Fused_Add_" type="Add" version="opset1">
			<input>
				<port id="0">
					<dim>1</dim>
					<dim>16</dim>
					<dim>384</dim>
					<dim>384</dim>
				</port>
				<port id="1">
					<dim>1</dim>
					<dim>16</dim>
					<dim>1</dim>
					<dim>1</dim>
				</port>
			</input>
			<output>
				<port id="2" precision="FP32">
					<dim>1</dim>
					<dim>16</dim>
					<dim>384</dim>
					<dim>384</dim>
				</port>
			</output>
		</layer>
		<layer id="14" name="332" type="ReLU" version="opset1">
			<input>
				<port id="0">
					<dim>1</dim>
					<dim>16</dim>
					<dim>384</dim>
					<dim>384</dim>
				</port>
			</input>
			<output>
				<port id="1" precision="FP32">
					<dim>1</dim>
					<dim>16</dim>
					<dim>384</dim>
					<dim>384</dim>
				</port>
			</output>
		</layer>
		<layer id="15" name="334/mean/Fused_Mul_93859387_const" type="Const" version="opset1">
			<data element_type="f32" offset="18776" shape="32,16,3,3" size="18432"/>
			<output>
				<port id="1" precision="FP32">
					<dim>32</dim>
					<dim>16</dim>
					<dim>3</dim>
					<dim>3</dim>
				</port>
			</output>
		</layer>
		<layer id="16" name="333" type="Convolution" version="opset1">
			<data dilations="1,1" output_padding="0,0" pads_begin="1,1" pads_end="1,1" strides="2,2"/>
			<input>
				<port id="0">
					<dim>1</dim>
					<dim>16</dim>
					<dim>384</dim>
					<dim>384</dim>
				</port>
				<port id="1">
					<dim>32</dim>
					<dim>16</dim>
					<dim>3</dim>
					<dim>3</dim>
				</port>
			</input>
			<output>
				<port id="2" precision="FP32">
					<dim>1</dim>
					<dim>32</dim>
					<dim>192</dim>
					<dim>192</dim>
				</port>
			</output>
		</layer>
		<layer id="17" name="data_add_825182568700/EltwiseUnsqueeze8840_const" type="Const" version="opset1">
			<data element_type="f32" offset="37208" shape="1,32,1,1" size="128"/>
			<output>
				<port id="1" precision="FP32">
					<dim>1</dim>
					<dim>32</dim>
					<dim>1</dim>
					<dim>1</dim>
				</port>
			</output>
		</layer>
		<layer id="18" name="334/variance/Fused_Add_" type="Add" version="opset1">
			<input>
				<port id="0">
					<dim>1</dim>
					<dim>32</dim>
					<dim>192</dim>
					<dim>192</dim>
				</port>
				<port id="1">
					<dim>1</dim>
					<dim>32</dim>
					<dim>1</dim>
					<dim>1</dim>
				</port>
			</input>
			<output>
				<port id="2" precision="FP32">
					<dim>1</dim>
					<dim>32</dim>
					<dim>192</dim>
					<dim>192</dim>
				</port>
			</output>
		</layer>
		<layer id="19" name="335" type="ReLU" version="opset1">
			<input>
				<port id="0">
					<dim>1</dim>
					<dim>32</dim>
					<dim>192</dim>
					<dim>192</dim>
				</port>
			</input>
			<output>
				<port id="1" precision="FP32">
					<dim>1</dim>
					<dim>32</dim>
					<dim>192</dim>
					<dim>192</dim>
				</port>
			</output>
		</layer>
		<layer id="20" name="340/mean/Fused_Mul_93899391_const" type="Const" version="opset1">
			<data element_type="f32" offset="37336" shape="64,32,3,3" size="73728"/>
			<output>
				<port id="1" precision="FP32">
					<dim>64</dim>
					<dim>32</dim>
					<dim>3</dim>
					<dim>3</dim>
				</port>
			</output>
		</layer>
		<layer id="21" name="339" type="Convolution" version="opset1">
			<data dilations="1,1" output_padding="0,0" pads_begin="1,1" pads_end="1,1" strides="2,2"/>
			<input>
				<port id="0">
					<dim>1</dim>
					<dim>32</dim>
					<dim>192</dim>
					<dim>192</dim>
				</port>
				<port id="1">
					<dim>64</dim>
					<dim>32</dim>
					<dim>3</dim>
					<dim>3</dim>
				</port>
			</input>
			<output>
				<port id="2" precision="FP32">
					<dim>1</dim>
					<dim>64</dim>
					<dim>96</dim>
					<dim>96</dim>
				</port>
			</output>
		</layer>
		<layer id="22" name="data_add_825982648702/EltwiseUnsqueeze8848_const" type="Const" version="opset1">
			<data element_type="f32" offset="111064" shape="1,64,1,1" size="256"/>
			<output>
				<port id="1" precision="FP32">
					<dim>1</dim>
					<dim>64</dim>
					<dim>1</dim>
					<dim>1</dim>
				</port>
			</output>
		</layer>
		<layer id="23" name="340/variance/Fused_Add_" type="Add" version="opset1">
			<input>
				<port id="0">
					<dim>1</dim>
					<dim>64</dim>
					<dim>96</dim>
					<dim>96</dim>
				</port>
				<port id="1">
					<dim>1</dim>
					<dim>64</dim>
					<dim>1</dim>
					<dim>1</dim>
				</port>
			</input>
			<output>
				<port id="2" precision="FP32">
					<dim>1</dim>
					<dim>64</dim>
					<dim>96</dim>
					<dim>96</dim>
				</port>
			</output>
		</layer>
		<layer id="24" name="341" type="ReLU" version="opset1">
			<input>
				<port id="0">
					<dim>1</dim>
					<dim>64</dim>
					<dim>96</dim>
					<dim>96</dim>
				</port>
			</input>
			<output>
				<port id="1" precision="FP32">
					<dim>1</dim>
					<dim>64</dim>
					<dim>96</dim>
					<dim>96</dim>
				</port>
			</output>
		</layer>
		<layer id="25" name="343/mean/Fused_Mul_93939395_const" type="Const" version="opset1">
			<data element_type="f32" offset="111320" shape="64,64,3,3" size="147456"/>
			<output>
				<port id="1" precision="FP32">
					<dim>64</dim>
					<dim>64</dim>
					<dim>3</dim>
					<dim>3</dim>
				</port>
			</output>
		</layer>
		<layer id="26" name="342" type="Convolution" version="opset1">
			<data dilations="1,1" output_padding="0,0" pads_begin="1,1" pads_end="1,1" strides="1,1"/>
			<input>
				<port id="0">
					<dim>1</dim>
					<dim>64</dim>
					<dim>96</dim>
					<dim>96</dim>
				</port>
				<port id="1">
					<dim>64</dim>
					<dim>64</dim>
					<dim>3</dim>
					<dim>3</dim>
				</port>
			</input>
			<output>
				<port id="2" precision="FP32">
					<dim>1</dim>
					<dim>64</dim>
					<dim>96</dim>
					<dim>96</dim>
				</port>
			</output>
		</layer>
		<layer id="27" name="data_add_826782728704/EltwiseUnsqueeze8856_const" type="Const" version="opset1">
			<data element_type="f32" offset="258776" shape="1,64,1,1" size="256"/>
			<output>
				<port id="1" precision="FP32">
					<dim>1</dim>
					<dim>64</dim>
					<dim>1</dim>
					<dim>1</dim>
				</port>
			</output>
		</layer>
		<layer id="28" name="343/variance/Fused_Add_" type="Add" version="opset1">
			<input>
				<port id="0">
					<dim>1</dim>
					<dim>64</dim>
					<dim>96</dim>
					<dim>96</dim>
				</port>
				<port id="1">
					<dim>1</dim>
					<dim>64</dim>
					<dim>1</dim>
					<dim>1</dim>
				</port>
			</input>
			<output>
				<port id="2" precision="FP32">
					<dim>1</dim>
					<dim>64</dim>
					<dim>96</dim>
					<dim>96</dim>
				</port>
			</output>
		</layer>
		<layer id="29" name="336" type="MaxPool" version="opset1">
			<data kernel="2,2" pads_begin="0,0" pads_end="0,0" rounding_type="floor" strides="2,2"/>
			<input>
				<port id="0">
					<dim>1</dim>
					<dim>32</dim>
					<dim>192</dim>
					<dim>192</dim>
				</port>
			</input>
			<output>
				<port id="1" precision="FP32">
					<dim>1</dim>
					<dim>32</dim>
					<dim>96</dim>
					<dim>96</dim>
				</port>
			</output>
		</layer>
		<layer id="30" name="338/mean/Fused_Mul_93979399_const" type="Const" version="opset1">
			<data element_type="f32" offset="259032" shape="64,32,1,1" size="8192"/>
			<output>
				<port id="1" precision="FP32">
					<dim>64</dim>
					<dim>32</dim>
					<dim>1</dim>
					<dim>1</dim>
				</port>
			</output>
		</layer>
		<layer id="31" name="337" type="Convolution" version="opset1">
			<data dilations="1,1" output_padding="0,0" pads_begin="0,0" pads_end="0,0" strides="1,1"/>
			<input>
				<port id="0">
					<dim>1</dim>
					<dim>32</dim>
					<dim>96</dim>
					<dim>96</dim>
				</port>
				<port id="1">
					<dim>64</dim>
					<dim>32</dim>
					<dim>1</dim>
					<dim>1</dim>
				</port>
			</input>
			<output>
				<port id="2" precision="FP32">
					<dim>1</dim>
					<dim>64</dim>
					<dim>96</dim>
					<dim>96</dim>
				</port>
			</output>
		</layer>
		<layer id="32" name="data_add_827582808706/EltwiseUnsqueeze8864_const" type="Const" version="opset1">
			<data element_type="f32" offset="267224" shape="1,64,1,1" size="256"/>
			<output>
				<port id="1" precision="FP32">
					<dim>1</dim>
					<dim>64</dim>
					<dim>1</dim>
					<dim>1</dim>
				</port>
			</output>
		</layer>
		<layer id="33" name="338/variance/Fused_Add_" type="Add" version="opset1">
			<input>
				<port id="0">
					<dim>1</dim>
					<dim>64</dim>
					<dim>96</dim>
					<dim>96</dim>
				</port>
				<port id="1">
					<dim>1</dim>
					<dim>64</dim>
					<dim>1</dim>
					<dim>1</dim>
				</port>
			</input>
			<output>
				<port id="2" precision="FP32">
					<dim>1</dim>
					<dim>64</dim>
					<dim>96</dim>
					<dim>96</dim>
				</port>
			</output>
		</layer>
		<layer id="34" name="344" type="Add" version="opset1">
			<input>
				<port id="0">
					<dim>1</dim>
					<dim>64</dim>
					<dim>96</dim>
					<dim>96</dim>
				</port>
				<port id="1">
					<dim>1</dim>
					<dim>64</dim>
					<dim>96</dim>
					<dim>96</dim>
				</port>
			</input>
			<output>
				<port id="2" precision="FP32">
					<dim>1</dim>
					<dim>64</dim>
					<dim>96</dim>
					<dim>96</dim>
				</port>
			</output>
		</layer>
		<layer id="35" name="345" type="ReLU" version="opset1">
			<input>
				<port id="0">
					<dim>1</dim>
					<dim>64</dim>
					<dim>96</dim>
					<dim>96</dim>
				</port>
			</input>
			<output>
				<port id="1" precision="FP32">
					<dim>1</dim>
					<dim>64</dim>
					<dim>96</dim>
					<dim>96</dim>
				</port>
			</output>
		</layer>
		<layer id="36" name="347/mean/Fused_Mul_94019403_const" type="Const" version="opset1">
			<data element_type="f32" offset="267480" shape="64,64,3,3" size="147456"/>
			<output>
				<port id="1" precision="FP32">
					<dim>64</dim>
					<dim>64</dim>
					<dim>3</dim>
					<dim>3</dim>
				</port>
			</output>
		</layer>
		<layer id="37" name="346" type="Convolution" version="opset1">
			<data dilations="1,1" output_padding="0,0" pads_begin="1,1" pads_end="1,1" strides="1,1"/>
			<input>
				<port id="0">
					<dim>1</dim>
					<dim>64</dim>
					<dim>96</dim>
					<dim>96</dim>
				</port>
				<port id="1">
					<dim>64</dim>
					<dim>64</dim>
					<dim>3</dim>
					<dim>3</dim>
				</port>
			</input>
			<output>
				<port id="2" precision="FP32">
					<dim>1</dim>
					<dim>64</dim>
					<dim>96</dim>
					<dim>96</dim>
				</port>
			</output>
		</layer>
		<layer id="38" name="data_add_828382888708/EltwiseUnsqueeze8872_const" type="Const" version="opset1">
			<data element_type="f32" offset="414936" shape="1,64,1,1" size="256"/>
			<output>
				<port id="1" precision="FP32">
					<dim>1</dim>
					<dim>64</dim>
					<dim>1</dim>
					<dim>1</dim>
				</port>
			</output>
		</layer>
		<layer id="39" name="347/variance/Fused_Add_" type="Add" version="opset1">
			<input>
				<port id="0">
					<dim>1</dim>
					<dim>64</dim>
					<dim>96</dim>
					<dim>96</dim>
				</port>
				<port id="1">
					<dim>1</dim>
					<dim>64</dim>
					<dim>1</dim>
					<dim>1</dim>
				</port>
			</input>
			<output>
				<port id="2" precision="FP32">
					<dim>1</dim>
					<dim>64</dim>
					<dim>96</dim>
					<dim>96</dim>
				</port>
			</output>
		</layer>
		<layer id="40" name="348" type="ReLU" version="opset1">
			<input>
				<port id="0">
					<dim>1</dim>
					<dim>64</dim>
					<dim>96</dim>
					<dim>96</dim>
				</port>
			</input>
			<output>
				<port id="1" precision="FP32">
					<dim>1</dim>
					<dim>64</dim>
					<dim>96</dim>
					<dim>96</dim>
				</port>
			</output>
		</layer>
		<layer id="41" name="350/mean/Fused_Mul_94059407_const" type="Const" version="opset1">
			<data element_type="f32" offset="415192" shape="64,64,3,3" size="147456"/>
			<output>
				<port id="1" precision="FP32">
					<dim>64</dim>
					<dim>64</dim>
					<dim>3</dim>
					<dim>3</dim>
				</port>
			</output>
		</layer>
		<layer id="42" name="349" type="Convolution" version="opset1">
			<data dilations="1,1" output_padding="0,0" pads_begin="1,1" pads_end="1,1" strides="1,1"/>
			<input>
				<port id="0">
					<dim>1</dim>
					<dim>64</dim>
					<dim>96</dim>
					<dim>96</dim>
				</port>
				<port id="1">
					<dim>64</dim>
					<dim>64</dim>
					<dim>3</dim>
					<dim>3</dim>
				</port>
			</input>
			<output>
				<port id="2" precision="FP32">
					<dim>1</dim>
					<dim>64</dim>
					<dim>96</dim>
					<dim>96</dim>
				</port>
			</output>
		</layer>
		<layer id="43" name="data_add_829182968710/EltwiseUnsqueeze8880_const" type="Const" version="opset1">
			<data element_type="f32" offset="562648" shape="1,64,1,1" size="256"/>
			<output>
				<port id="1" precision="FP32">
					<dim>1</dim>
					<dim>64</dim>
					<dim>1</dim>
					<dim>1</dim>
				</port>
			</output>
		</layer>
		<layer id="44" name="350/variance/Fused_Add_" type="Add" version="opset1">
			<input>
				<port id="0">
					<dim>1</dim>
					<dim>64</dim>
					<dim>96</dim>
					<dim>96</dim>
				</port>
				<port id="1">
					<dim>1</dim>
					<dim>64</dim>
					<dim>1</dim>
					<dim>1</dim>
				</port>
			</input>
			<output>
				<port id="2" precision="FP32">
					<dim>1</dim>
					<dim>64</dim>
					<dim>96</dim>
					<dim>96</dim>
				</port>
			</output>
		</layer>
		<layer id="45" name="351" type="Add" version="opset1">
			<input>
				<port id="0">
					<dim>1</dim>
					<dim>64</dim>
					<dim>96</dim>
					<dim>96</dim>
				</port>
				<port id="1">
					<dim>1</dim>
					<dim>64</dim>
					<dim>96</dim>
					<dim>96</dim>
				</port>
			</input>
			<output>
				<port id="2" precision="FP32">
					<dim>1</dim>
					<dim>64</dim>
					<dim>96</dim>
					<dim>96</dim>
				</port>
			</output>
		</layer>
		<layer id="46" name="352" type="ReLU" version="opset1">
			<input>
				<port id="0">
					<dim>1</dim>
					<dim>64</dim>
					<dim>96</dim>
					<dim>96</dim>
				</port>
			</input>
			<output>
				<port id="1" precision="FP32">
					<dim>1</dim>
					<dim>64</dim>
					<dim>96</dim>
					<dim>96</dim>
				</port>
			</output>
		</layer>
		<layer id="47" name="353" type="Concat" version="opset1">
			<data axis="1"/>
			<input>
				<port id="0">
					<dim>1</dim>
					<dim>64</dim>
					<dim>96</dim>
					<dim>96</dim>
				</port>
				<port id="1">
					<dim>1</dim>
					<dim>64</dim>
					<dim>96</dim>
					<dim>96</dim>
				</port>
			</input>
			<output>
				<port id="2" precision="FP32">
					<dim>1</dim>
					<dim>128</dim>
					<dim>96</dim>
					<dim>96</dim>
				</port>
			</output>
		</layer>
		<layer id="48" name="355/mean/Fused_Mul_94099411_const" type="Const" version="opset1">
			<data element_type="f32" offset="562904" shape="64,128,1,1" size="32768"/>
			<output>
				<port id="1" precision="FP32">
					<dim>64</dim>
					<dim>128</dim>
					<dim>1</dim>
					<dim>1</dim>
				</port>
			</output>
		</layer>
		<layer id="49" name="354" type="Convolution" version="opset1">
			<data dilations="1,1" output_padding="0,0" pads_begin="0,0" pads_end="0,0" strides="1,1"/>
			<input>
				<port id="0">
					<dim>1</dim>
					<dim>128</dim>
					<dim>96</dim>
					<dim>96</dim>
				</port>
				<port id="1">
					<dim>64</dim>
					<dim>128</dim>
					<dim>1</dim>
					<dim>1</dim>
				</port>
			</input>
			<output>
				<port id="2" precision="FP32">
					<dim>1</dim>
					<dim>64</dim>
					<dim>96</dim>
					<dim>96</dim>
				</port>
			</output>
		</layer>
		<layer id="50" name="data_add_829983048712/EltwiseUnsqueeze8888_const" type="Const" version="opset1">
			<data element_type="f32" offset="595672" shape="1,64,1,1" size="256"/>
			<output>
				<port id="1" precision="FP32">
					<dim>1</dim>
					<dim>64</dim>
					<dim>1</dim>
					<dim>1</dim>
				</port>
			</output>
		</layer>
		<layer id="51" name="355/variance/Fused_Add_" type="Add" version="opset1">
			<input>
				<port id="0">
					<dim>1</dim>
					<dim>64</dim>
					<dim>96</dim>
					<dim>96</dim>
				</port>
				<port id="1">
					<dim>1</dim>
					<dim>64</dim>
					<dim>1</dim>
					<dim>1</dim>
				</port>
			</input>
			<output>
				<port id="2" precision="FP32">
					<dim>1</dim>
					<dim>64</dim>
					<dim>96</dim>
					<dim>96</dim>
				</port>
			</output>
		</layer>
		<layer id="52" name="356" type="ReLU" version="opset1">
			<input>
				<port id="0">
					<dim>1</dim>
					<dim>64</dim>
					<dim>96</dim>
					<dim>96</dim>
				</port>
			</input>
			<output>
				<port id="1" precision="FP32">
					<dim>1</dim>
					<dim>64</dim>
					<dim>96</dim>
					<dim>96</dim>
				</port>
			</output>
		</layer>
		<layer id="53" name="362/mean/Fused_Mul_94139415_const" type="Const" version="opset1">
			<data element_type="f32" offset="595928" shape="128,64,3,3" size="294912"/>
			<output>
				<port id="1" precision="FP32">
					<dim>128</dim>
					<dim>64</dim>
					<dim>3</dim>
					<dim>3</dim>
				</port>
			</output>
		</layer>
		<layer id="54" name="361" type="Convolution" version="opset1">
			<data dilations="1,1" output_padding="0,0" pads_begin="1,1" pads_end="1,1" strides="2,2"/>
			<input>
				<port id="0">
					<dim>1</dim>
					<dim>64</dim>
					<dim>96</dim>
					<dim>96</dim>
				</port>
				<port id="1">
					<dim>128</dim>
					<dim>64</dim>
					<dim>3</dim>
					<dim>3</dim>
				</port>
			</input>
			<output>
				<port id="2" precision="FP32">
					<dim>1</dim>
					<dim>128</dim>
					<dim>48</dim>
					<dim>48</dim>
				</port>
			</output>
		</layer>
		<layer id="55" name="data_add_830783128714/EltwiseUnsqueeze8896_const" type="Const" version="opset1">
			<data element_type="f32" offset="890840" shape="1,128,1,1" size="512"/>
			<output>
				<port id="1" precision="FP32">
					<dim>1</dim>
					<dim>128</dim>
					<dim>1</dim>
					<dim>1</dim>
				</port>
			</output>
		</layer>
		<layer id="56" name="362/variance/Fused_Add_" type="Add" version="opset1">
			<input>
				<port id="0">
					<dim>1</dim>
					<dim>128</dim>
					<dim>48</dim>
					<dim>48</dim>
				</port>
				<port id="1">
					<dim>1</dim>
					<dim>128</dim>
					<dim>1</dim>
					<dim>1</dim>
				</port>
			</input>
			<output>
				<port id="2" precision="FP32">
					<dim>1</dim>
					<dim>128</dim>
					<dim>48</dim>
					<dim>48</dim>
				</port>
			</output>
		</layer>
		<layer id="57" name="363" type="ReLU" version="opset1">
			<input>
				<port id="0">
					<dim>1</dim>
					<dim>128</dim>
					<dim>48</dim>
					<dim>48</dim>
				</port>
			</input>
			<output>
				<port id="1" precision="FP32">
					<dim>1</dim>
					<dim>128</dim>
					<dim>48</dim>
					<dim>48</dim>
				</port>
			</output>
		</layer>
		<layer id="58" name="365/mean/Fused_Mul_94179419_const" type="Const" version="opset1">
			<data element_type="f32" offset="891352" shape="128,128,3,3" size="589824"/>
			<output>
				<port id="1" precision="FP32">
					<dim>128</dim>
					<dim>128</dim>
					<dim>3</dim>
					<dim>3</dim>
				</port>
			</output>
		</layer>
		<layer id="59" name="364" type="Convolution" version="opset1">
			<data dilations="1,1" output_padding="0,0" pads_begin="1,1" pads_end="1,1" strides="1,1"/>
			<input>
				<port id="0">
					<dim>1</dim>
					<dim>128</dim>
					<dim>48</dim>
					<dim>48</dim>
				</port>
				<port id="1">
					<dim>128</dim>
					<dim>128</dim>
					<dim>3</dim>
					<dim>3</dim>
				</port>
			</input>
			<output>
				<port id="2" precision="FP32">
					<dim>1</dim>
					<dim>128</dim>
					<dim>48</dim>
					<dim>48</dim>
				</port>
			</output>
		</layer>
		<layer id="60" name="data_add_831583208716/EltwiseUnsqueeze8904_const" type="Const" version="opset1">
			<data element_type="f32" offset="1481176" shape="1,128,1,1" size="512"/>
			<output>
				<port id="1" precision="FP32">
					<dim>1</dim>
					<dim>128</dim>
					<dim>1</dim>
					<dim>1</dim>
				</port>
			</output>
		</layer>
		<layer id="61" name="365/variance/Fused_Add_" type="Add" version="opset1">
			<input>
				<port id="0">
					<dim>1</dim>
					<dim>128</dim>
					<dim>48</dim>
					<dim>48</dim>
				</port>
				<port id="1">
					<dim>1</dim>
					<dim>128</dim>
					<dim>1</dim>
					<dim>1</dim>
				</port>
			</input>
			<output>
				<port id="2" precision="FP32">
					<dim>1</dim>
					<dim>128</dim>
					<dim>48</dim>
					<dim>48</dim>
				</port>
			</output>
		</layer>
		<layer id="62" name="358" type="MaxPool" version="opset1">
			<data kernel="2,2" pads_begin="0,0" pads_end="0,0" rounding_type="floor" strides="2,2"/>
			<input>
				<port id="0">
					<dim>1</dim>
					<dim>64</dim>
					<dim>96</dim>
					<dim>96</dim>
				</port>
			</input>
			<output>
				<port id="1" precision="FP32">
					<dim>1</dim>
					<dim>64</dim>
					<dim>48</dim>
					<dim>48</dim>
				</port>
			</output>
		</layer>
		<layer id="63" name="360/mean/Fused_Mul_94219423_const" type="Const" version="opset1">
			<data element_type="f32" offset="1481688" shape="128,64,1,1" size="32768"/>
			<output>
				<port id="1" precision="FP32">
					<dim>128</dim>
					<dim>64</dim>
					<dim>1</dim>
					<dim>1</dim>
				</port>
			</output>
		</layer>
		<layer id="64" name="359" type="Convolution" version="opset1">
			<data dilations="1,1" output_padding="0,0" pads_begin="0,0" pads_end="0,0" strides="1,1"/>
			<input>
				<port id="0">
					<dim>1</dim>
					<dim>64</dim>
					<dim>48</dim>
					<dim>48</dim>
				</port>
				<port id="1">
					<dim>128</dim>
					<dim>64</dim>
					<dim>1</dim>
					<dim>1</dim>
				</port>
			</input>
			<output>
				<port id="2" precision="FP32">
					<dim>1</dim>
					<dim>128</dim>
					<dim>48</dim>
					<dim>48</dim>
				</port>
			</output>
		</layer>
		<layer id="65" name="data_add_832383288718/EltwiseUnsqueeze8912_const" type="Const" version="opset1">
			<data element_type="f32" offset="1514456" shape="1,128,1,1" size="512"/>
			<output>
				<port id="1" precision="FP32">
					<dim>1</dim>
					<dim>128</dim>
					<dim>1</dim>
					<dim>1</dim>
				</port>
			</output>
		</layer>
		<layer id="66" name="360/variance/Fused_Add_" type="Add" version="opset1">
			<input>
				<port id="0">
					<dim>1</dim>
					<dim>128</dim>
					<dim>48</dim>
					<dim>48</dim>
				</port>
				<port id="1">
					<dim>1</dim>
					<dim>128</dim>
					<dim>1</dim>
					<dim>1</dim>
				</port>
			</input>
			<output>
				<port id="2" precision="FP32">
					<dim>1</dim>
					<dim>128</dim>
					<dim>48</dim>
					<dim>48</dim>
				</port>
			</output>
		</layer>
		<layer id="67" name="366" type="Add" version="opset1">
			<input>
				<port id="0">
					<dim>1</dim>
					<dim>128</dim>
					<dim>48</dim>
					<dim>48</dim>
				</port>
				<port id="1">
					<dim>1</dim>
					<dim>128</dim>
					<dim>48</dim>
					<dim>48</dim>
				</port>
			</input>
			<output>
				<port id="2" precision="FP32">
					<dim>1</dim>
					<dim>128</dim>
					<dim>48</dim>
					<dim>48</dim>
				</port>
			</output>
		</layer>
		<layer id="68" name="367" type="ReLU" version="opset1">
			<input>
				<port id="0">
					<dim>1</dim>
					<dim>128</dim>
					<dim>48</dim>
					<dim>48</dim>
				</port>
			</input>
			<output>
				<port id="1" precision="FP32">
					<dim>1</dim>
					<dim>128</dim>
					<dim>48</dim>
					<dim>48</dim>
				</port>
			</output>
		</layer>
		<layer id="69" name="369/mean/Fused_Mul_94259427_const" type="Const" version="opset1">
			<data element_type="f32" offset="1514968" shape="128,128,3,3" size="589824"/>
			<output>
				<port id="1" precision="FP32">
					<dim>128</dim>
					<dim>128</dim>
					<dim>3</dim>
					<dim>3</dim>
				</port>
			</output>
		</layer>
		<layer id="70" name="368" type="Convolution" version="opset1">
			<data dilations="1,1" output_padding="0,0" pads_begin="1,1" pads_end="1,1" strides="1,1"/>
			<input>
				<port id="0">
					<dim>1</dim>
					<dim>128</dim>
					<dim>48</dim>
					<dim>48</dim>
				</port>
				<port id="1">
					<dim>128</dim>
					<dim>128</dim>
					<dim>3</dim>
					<dim>3</dim>
				</port>
			</input>
			<output>
				<port id="2" precision="FP32">
					<dim>1</dim>
					<dim>128</dim>
					<dim>48</dim>
					<dim>48</dim>
				</port>
			</output>
		</layer>
		<layer id="71" name="data_add_833183368720/EltwiseUnsqueeze8920_const" type="Const" version="opset1">
			<data element_type="f32" offset="2104792" shape="1,128,1,1" size="512"/>
			<output>
				<port id="1" precision="FP32">
					<dim>1</dim>
					<dim>128</dim>
					<dim>1</dim>
					<dim>1</dim>
				</port>
			</output>
		</layer>
		<layer id="72" name="369/variance/Fused_Add_" type="Add" version="opset1">
			<input>
				<port id="0">
					<dim>1</dim>
					<dim>128</dim>
					<dim>48</dim>
					<dim>48</dim>
				</port>
				<port id="1">
					<dim>1</dim>
					<dim>128</dim>
					<dim>1</dim>
					<dim>1</dim>
				</port>
			</input>
			<output>
				<port id="2" precision="FP32">
					<dim>1</dim>
					<dim>128</dim>
					<dim>48</dim>
					<dim>48</dim>
				</port>
			</output>
		</layer>
		<layer id="73" name="370" type="ReLU" version="opset1">
			<input>
				<port id="0">
					<dim>1</dim>
					<dim>128</dim>
					<dim>48</dim>
					<dim>48</dim>
				</port>
			</input>
			<output>
				<port id="1" precision="FP32">
					<dim>1</dim>
					<dim>128</dim>
					<dim>48</dim>
					<dim>48</dim>
				</port>
			</output>
		</layer>
		<layer id="74" name="372/mean/Fused_Mul_94299431_const" type="Const" version="opset1">
			<data element_type="f32" offset="2105304" shape="128,128,3,3" size="589824"/>
			<output>
				<port id="1" precision="FP32">
					<dim>128</dim>
					<dim>128</dim>
					<dim>3</dim>
					<dim>3</dim>
				</port>
			</output>
		</layer>
		<layer id="75" name="371" type="Convolution" version="opset1">
			<data dilations="1,1" output_padding="0,0" pads_begin="1,1" pads_end="1,1" strides="1,1"/>
			<input>
				<port id="0">
					<dim>1</dim>
					<dim>128</dim>
					<dim>48</dim>
					<dim>48</dim>
				</port>
				<port id="1">
					<dim>128</dim>
					<dim>128</dim>
					<dim>3</dim>
					<dim>3</dim>
				</port>
			</input>
			<output>
				<port id="2" precision="FP32">
					<dim>1</dim>
					<dim>128</dim>
					<dim>48</dim>
					<dim>48</dim>
				</port>
			</output>
		</layer>
		<layer id="76" name="data_add_833983448722/EltwiseUnsqueeze8928_const" type="Const" version="opset1">
			<data element_type="f32" offset="2695128" shape="1,128,1,1" size="512"/>
			<output>
				<port id="1" precision="FP32">
					<dim>1</dim>
					<dim>128</dim>
					<dim>1</dim>
					<dim>1</dim>
				</port>
			</output>
		</layer>
		<layer id="77" name="372/variance/Fused_Add_" type="Add" version="opset1">
			<input>
				<port id="0">
					<dim>1</dim>
					<dim>128</dim>
					<dim>48</dim>
					<dim>48</dim>
				</port>
				<port id="1">
					<dim>1</dim>
					<dim>128</dim>
					<dim>1</dim>
					<dim>1</dim>
				</port>
			</input>
			<output>
				<port id="2" precision="FP32">
					<dim>1</dim>
					<dim>128</dim>
					<dim>48</dim>
					<dim>48</dim>
				</port>
			</output>
		</layer>
		<layer id="78" name="373" type="Add" version="opset1">
			<input>
				<port id="0">
					<dim>1</dim>
					<dim>128</dim>
					<dim>48</dim>
					<dim>48</dim>
				</port>
				<port id="1">
					<dim>1</dim>
					<dim>128</dim>
					<dim>48</dim>
					<dim>48</dim>
				</port>
			</input>
			<output>
				<port id="2" precision="FP32">
					<dim>1</dim>
					<dim>128</dim>
					<dim>48</dim>
					<dim>48</dim>
				</port>
			</output>
		</layer>
		<layer id="79" name="374" type="ReLU" version="opset1">
			<input>
				<port id="0">
					<dim>1</dim>
					<dim>128</dim>
					<dim>48</dim>
					<dim>48</dim>
				</port>
			</input>
			<output>
				<port id="1" precision="FP32">
					<dim>1</dim>
					<dim>128</dim>
					<dim>48</dim>
					<dim>48</dim>
				</port>
			</output>
		</layer>
		<layer id="80" name="375" type="Concat" version="opset1">
			<data axis="1"/>
			<input>
				<port id="0">
					<dim>1</dim>
					<dim>128</dim>
					<dim>48</dim>
					<dim>48</dim>
				</port>
				<port id="1">
					<dim>1</dim>
					<dim>128</dim>
					<dim>48</dim>
					<dim>48</dim>
				</port>
			</input>
			<output>
				<port id="2" precision="FP32">
					<dim>1</dim>
					<dim>256</dim>
					<dim>48</dim>
					<dim>48</dim>
				</port>
			</output>
		</layer>
		<layer id="81" name="377/mean/Fused_Mul_94339435_const" type="Const" version="opset1">
			<data element_type="f32" offset="2695640" shape="128,256,1,1" size="131072"/>
			<output>
				<port id="1" precision="FP32">
					<dim>128</dim>
					<dim>256</dim>
					<dim>1</dim>
					<dim>1</dim>
				</port>
			</output>
		</layer>
		<layer id="82" name="376" type="Convolution" version="opset1">
			<data dilations="1,1" output_padding="0,0" pads_begin="0,0" pads_end="0,0" strides="1,1"/>
			<input>
				<port id="0">
					<dim>1</dim>
					<dim>256</dim>
					<dim>48</dim>
					<dim>48</dim>
				</port>
				<port id="1">
					<dim>128</dim>
					<dim>256</dim>
					<dim>1</dim>
					<dim>1</dim>
				</port>
			</input>
			<output>
				<port id="2" precision="FP32">
					<dim>1</dim>
					<dim>128</dim>
					<dim>48</dim>
					<dim>48</dim>
				</port>
			</output>
		</layer>
		<layer id="83" name="data_add_834783528724/EltwiseUnsqueeze8936_const" type="Const" version="opset1">
			<data element_type="f32" offset="2826712" shape="1,128,1,1" size="512"/>
			<output>
				<port id="1" precision="FP32">
					<dim>1</dim>
					<dim>128</dim>
					<dim>1</dim>
					<dim>1</dim>
				</port>
			</output>
		</layer>
		<layer id="84" name="377/variance/Fused_Add_" type="Add" version="opset1">
			<input>
				<port id="0">
					<dim>1</dim>
					<dim>128</dim>
					<dim>48</dim>
					<dim>48</dim>
				</port>
				<port id="1">
					<dim>1</dim>
					<dim>128</dim>
					<dim>1</dim>
					<dim>1</dim>
				</port>
			</input>
			<output>
				<port id="2" precision="FP32">
					<dim>1</dim>
					<dim>128</dim>
					<dim>48</dim>
					<dim>48</dim>
				</port>
			</output>
		</layer>
		<layer id="85" name="378" type="ReLU" version="opset1">
			<input>
				<port id="0">
					<dim>1</dim>
					<dim>128</dim>
					<dim>48</dim>
					<dim>48</dim>
				</port>
			</input>
			<output>
				<port id="1" precision="FP32">
					<dim>1</dim>
					<dim>128</dim>
					<dim>48</dim>
					<dim>48</dim>
				</port>
			</output>
		</layer>
		<layer id="86" name="380/mean/Fused_Mul_94379439_const" type="Const" version="opset1">
			<data element_type="f32" offset="2827224" shape="128,128,3,3" size="589824"/>
			<output>
				<port id="1" precision="FP32">
					<dim>128</dim>
					<dim>128</dim>
					<dim>3</dim>
					<dim>3</dim>
				</port>
			</output>
		</layer>
		<layer id="87" name="379" type="Convolution" version="opset1">
			<data dilations="1,1" output_padding="0,0" pads_begin="1,1" pads_end="1,1" strides="1,1"/>
			<input>
				<port id="0">
					<dim>1</dim>
					<dim>128</dim>
					<dim>48</dim>
					<dim>48</dim>
				</port>
				<port id="1">
					<dim>128</dim>
					<dim>128</dim>
					<dim>3</dim>
					<dim>3</dim>
				</port>
			</input>
			<output>
				<port id="2" precision="FP32">
					<dim>1</dim>
					<dim>128</dim>
					<dim>48</dim>
					<dim>48</dim>
				</port>
			</output>
		</layer>
		<layer id="88" name="data_add_835583608726/EltwiseUnsqueeze8944_const" type="Const" version="opset1">
			<data element_type="f32" offset="3417048" shape="1,128,1,1" size="512"/>
			<output>
				<port id="1" precision="FP32">
					<dim>1</dim>
					<dim>128</dim>
					<dim>1</dim>
					<dim>1</dim>
				</port>
			</output>
		</layer>
		<layer id="89" name="380/variance/Fused_Add_" type="Add" version="opset1">
			<input>
				<port id="0">
					<dim>1</dim>
					<dim>128</dim>
					<dim>48</dim>
					<dim>48</dim>
				</port>
				<port id="1">
					<dim>1</dim>
					<dim>128</dim>
					<dim>1</dim>
					<dim>1</dim>
				</port>
			</input>
			<output>
				<port id="2" precision="FP32">
					<dim>1</dim>
					<dim>128</dim>
					<dim>48</dim>
					<dim>48</dim>
				</port>
			</output>
		</layer>
		<layer id="90" name="381" type="ReLU" version="opset1">
			<input>
				<port id="0">
					<dim>1</dim>
					<dim>128</dim>
					<dim>48</dim>
					<dim>48</dim>
				</port>
			</input>
			<output>
				<port id="1" precision="FP32">
					<dim>1</dim>
					<dim>128</dim>
					<dim>48</dim>
					<dim>48</dim>
				</port>
			</output>
		</layer>
		<layer id="91" name="383/mean/Fused_Mul_94419443_const" type="Const" version="opset1">
			<data element_type="f32" offset="3417560" shape="128,128,3,3" size="589824"/>
			<output>
				<port id="1" precision="FP32">
					<dim>128</dim>
					<dim>128</dim>
					<dim>3</dim>
					<dim>3</dim>
				</port>
			</output>
		</layer>
		<layer id="92" name="382" type="Convolution" version="opset1">
			<data dilations="1,1" output_padding="0,0" pads_begin="1,1" pads_end="1,1" strides="1,1"/>
			<input>
				<port id="0">
					<dim>1</dim>
					<dim>128</dim>
					<dim>48</dim>
					<dim>48</dim>
				</port>
				<port id="1">
					<dim>128</dim>
					<dim>128</dim>
					<dim>3</dim>
					<dim>3</dim>
				</port>
			</input>
			<output>
				<port id="2" precision="FP32">
					<dim>1</dim>
					<dim>128</dim>
					<dim>48</dim>
					<dim>48</dim>
				</port>
			</output>
		</layer>
		<layer id="93" name="data_add_836383688728/EltwiseUnsqueeze8952_const" type="Const" version="opset1">
			<data element_type="f32" offset="4007384" shape="1,128,1,1" size="512"/>
			<output>
				<port id="1" precision="FP32">
					<dim>1</dim>
					<dim>128</dim>
					<dim>1</dim>
					<dim>1</dim>
				</port>
			</output>
		</layer>
		<layer id="94" name="383/variance/Fused_Add_" type="Add" version="opset1">
			<input>
				<port id="0">
					<dim>1</dim>
					<dim>128</dim>
					<dim>48</dim>
					<dim>48</dim>
				</port>
				<port id="1">
					<dim>1</dim>
					<dim>128</dim>
					<dim>1</dim>
					<dim>1</dim>
				</port>
			</input>
			<output>
				<port id="2" precision="FP32">
					<dim>1</dim>
					<dim>128</dim>
					<dim>48</dim>
					<dim>48</dim>
				</port>
			</output>
		</layer>
		<layer id="95" name="384" type="Add" version="opset1">
			<input>
				<port id="0">
					<dim>1</dim>
					<dim>128</dim>
					<dim>48</dim>
					<dim>48</dim>
				</port>
				<port id="1">
					<dim>1</dim>
					<dim>128</dim>
					<dim>48</dim>
					<dim>48</dim>
				</port>
			</input>
			<output>
				<port id="2" precision="FP32">
					<dim>1</dim>
					<dim>128</dim>
					<dim>48</dim>
					<dim>48</dim>
				</port>
			</output>
		</layer>
		<layer id="96" name="385" type="ReLU" version="opset1">
			<input>
				<port id="0">
					<dim>1</dim>
					<dim>128</dim>
					<dim>48</dim>
					<dim>48</dim>
				</port>
			</input>
			<output>
				<port id="1" precision="FP32">
					<dim>1</dim>
					<dim>128</dim>
					<dim>48</dim>
					<dim>48</dim>
				</port>
			</output>
		</layer>
		<layer id="97" name="387/mean/Fused_Mul_94459447_const" type="Const" version="opset1">
			<data element_type="f32" offset="4007896" shape="128,128,3,3" size="589824"/>
			<output>
				<port id="1" precision="FP32">
					<dim>128</dim>
					<dim>128</dim>
					<dim>3</dim>
					<dim>3</dim>
				</port>
			</output>
		</layer>
		<layer id="98" name="386" type="Convolution" version="opset1">
			<data dilations="1,1" output_padding="0,0" pads_begin="1,1" pads_end="1,1" strides="1,1"/>
			<input>
				<port id="0">
					<dim>1</dim>
					<dim>128</dim>
					<dim>48</dim>
					<dim>48</dim>
				</port>
				<port id="1">
					<dim>128</dim>
					<dim>128</dim>
					<dim>3</dim>
					<dim>3</dim>
				</port>
			</input>
			<output>
				<port id="2" precision="FP32">
					<dim>1</dim>
					<dim>128</dim>
					<dim>48</dim>
					<dim>48</dim>
				</port>
			</output>
		</layer>
		<layer id="99" name="data_add_837183768730/EltwiseUnsqueeze8960_const" type="Const" version="opset1">
			<data element_type="f32" offset="4597720" shape="1,128,1,1" size="512"/>
			<output>
				<port id="1" precision="FP32">
					<dim>1</dim>
					<dim>128</dim>
					<dim>1</dim>
					<dim>1</dim>
				</port>
			</output>
		</layer>
		<layer id="100" name="387/variance/Fused_Add_" type="Add" version="opset1">
			<input>
				<port id="0">
					<dim>1</dim>
					<dim>128</dim>
					<dim>48</dim>
					<dim>48</dim>
				</port>
				<port id="1">
					<dim>1</dim>
					<dim>128</dim>
					<dim>1</dim>
					<dim>1</dim>
				</port>
			</input>
			<output>
				<port id="2" precision="FP32">
					<dim>1</dim>
					<dim>128</dim>
					<dim>48</dim>
					<dim>48</dim>
				</port>
			</output>
		</layer>
		<layer id="101" name="388" type="ReLU" version="opset1">
			<input>
				<port id="0">
					<dim>1</dim>
					<dim>128</dim>
					<dim>48</dim>
					<dim>48</dim>
				</port>
			</input>
			<output>
				<port id="1" precision="FP32">
					<dim>1</dim>
					<dim>128</dim>
					<dim>48</dim>
					<dim>48</dim>
				</port>
			</output>
		</layer>
		<layer id="102" name="390/mean/Fused_Mul_94499451_const" type="Const" version="opset1">
			<data element_type="f32" offset="4598232" shape="128,128,3,3" size="589824"/>
			<output>
				<port id="1" precision="FP32">
					<dim>128</dim>
					<dim>128</dim>
					<dim>3</dim>
					<dim>3</dim>
				</port>
			</output>
		</layer>
		<layer id="103" name="389" type="Convolution" version="opset1">
			<data dilations="1,1" output_padding="0,0" pads_begin="1,1" pads_end="1,1" strides="1,1"/>
			<input>
				<port id="0">
					<dim>1</dim>
					<dim>128</dim>
					<dim>48</dim>
					<dim>48</dim>
				</port>
				<port id="1">
					<dim>128</dim>
					<dim>128</dim>
					<dim>3</dim>
					<dim>3</dim>
				</port>
			</input>
			<output>
				<port id="2" precision="FP32">
					<dim>1</dim>
					<dim>128</dim>
					<dim>48</dim>
					<dim>48</dim>
				</port>
			</output>
		</layer>
		<layer id="104" name="data_add_837983848732/EltwiseUnsqueeze8968_const" type="Const" version="opset1">
			<data element_type="f32" offset="5188056" shape="1,128,1,1" size="512"/>
			<output>
				<port id="1" precision="FP32">
					<dim>1</dim>
					<dim>128</dim>
					<dim>1</dim>
					<dim>1</dim>
				</port>
			</output>
		</layer>
		<layer id="105" name="390/variance/Fused_Add_" type="Add" version="opset1">
			<input>
				<port id="0">
					<dim>1</dim>
					<dim>128</dim>
					<dim>48</dim>
					<dim>48</dim>
				</port>
				<port id="1">
					<dim>1</dim>
					<dim>128</dim>
					<dim>1</dim>
					<dim>1</dim>
				</port>
			</input>
			<output>
				<port id="2" precision="FP32">
					<dim>1</dim>
					<dim>128</dim>
					<dim>48</dim>
					<dim>48</dim>
				</port>
			</output>
		</layer>
		<layer id="106" name="391" type="Add" version="opset1">
			<input>
				<port id="0">
					<dim>1</dim>
					<dim>128</dim>
					<dim>48</dim>
					<dim>48</dim>
				</port>
				<port id="1">
					<dim>1</dim>
					<dim>128</dim>
					<dim>48</dim>
					<dim>48</dim>
				</port>
			</input>
			<output>
				<port id="2" precision="FP32">
					<dim>1</dim>
					<dim>128</dim>
					<dim>48</dim>
					<dim>48</dim>
				</port>
			</output>
		</layer>
		<layer id="107" name="392" type="ReLU" version="opset1">
			<input>
				<port id="0">
					<dim>1</dim>
					<dim>128</dim>
					<dim>48</dim>
					<dim>48</dim>
				</port>
			</input>
			<output>
				<port id="1" precision="FP32">
					<dim>1</dim>
					<dim>128</dim>
					<dim>48</dim>
					<dim>48</dim>
				</port>
			</output>
		</layer>
		<layer id="108" name="357" type="MaxPool" version="opset1">
			<data kernel="2,2" pads_begin="0,0" pads_end="0,0" rounding_type="floor" strides="2,2"/>
			<input>
				<port id="0">
					<dim>1</dim>
					<dim>64</dim>
					<dim>96</dim>
					<dim>96</dim>
				</port>
			</input>
			<output>
				<port id="1" precision="FP32">
					<dim>1</dim>
					<dim>64</dim>
					<dim>48</dim>
					<dim>48</dim>
				</port>
			</output>
		</layer>
		<layer id="109" name="393" type="Concat" version="opset1">
			<data axis="1"/>
			<input>
				<port id="0">
					<dim>1</dim>
					<dim>128</dim>
					<dim>48</dim>
					<dim>48</dim>
				</port>
				<port id="1">
					<dim>1</dim>
					<dim>128</dim>
					<dim>48</dim>
					<dim>48</dim>
				</port>
				<port id="2">
					<dim>1</dim>
					<dim>64</dim>
					<dim>48</dim>
					<dim>48</dim>
				</port>
				<port id="3">
					<dim>1</dim>
					<dim>128</dim>
					<dim>48</dim>
					<dim>48</dim>
				</port>
			</input>
			<output>
				<port id="4" precision="FP32">
					<dim>1</dim>
					<dim>448</dim>
					<dim>48</dim>
					<dim>48</dim>
				</port>
			</output>
		</layer>
		<layer id="110" name="395/mean/Fused_Mul_94539455_const" type="Const" version="opset1">
			<data element_type="f32" offset="5188568" shape="128,448,1,1" size="229376"/>
			<output>
				<port id="1" precision="FP32">
					<dim>128</dim>
					<dim>448</dim>
					<dim>1</dim>
					<dim>1</dim>
				</port>
			</output>
		</layer>
		<layer id="111" name="394" type="Convolution" version="opset1">
			<data dilations="1,1" output_padding="0,0" pads_begin="0,0" pads_end="0,0" strides="1,1"/>
			<input>
				<port id="0">
					<dim>1</dim>
					<dim>448</dim>
					<dim>48</dim>
					<dim>48</dim>
				</port>
				<port id="1">
					<dim>128</dim>
					<dim>448</dim>
					<dim>1</dim>
					<dim>1</dim>
				</port>
			</input>
			<output>
				<port id="2" precision="FP32">
					<dim>1</dim>
					<dim>128</dim>
					<dim>48</dim>
					<dim>48</dim>
				</port>
			</output>
		</layer>
		<layer id="112" name="data_add_838783928734/EltwiseUnsqueeze8976_const" type="Const" version="opset1">
			<data element_type="f32" offset="5417944" shape="1,128,1,1" size="512"/>
			<output>
				<port id="1" precision="FP32">
					<dim>1</dim>
					<dim>128</dim>
					<dim>1</dim>
					<dim>1</dim>
				</port>
			</output>
		</layer>
		<layer id="113" name="395/variance/Fused_Add_" type="Add" version="opset1">
			<input>
				<port id="0">
					<dim>1</dim>
					<dim>128</dim>
					<dim>48</dim>
					<dim>48</dim>
				</port>
				<port id="1">
					<dim>1</dim>
					<dim>128</dim>
					<dim>1</dim>
					<dim>1</dim>
				</port>
			</input>
			<output>
				<port id="2" precision="FP32">
					<dim>1</dim>
					<dim>128</dim>
					<dim>48</dim>
					<dim>48</dim>
				</port>
			</output>
		</layer>
		<layer id="114" name="396" type="ReLU" version="opset1">
			<input>
				<port id="0">
					<dim>1</dim>
					<dim>128</dim>
					<dim>48</dim>
					<dim>48</dim>
				</port>
			</input>
			<output>
				<port id="1" precision="FP32">
					<dim>1</dim>
					<dim>128</dim>
					<dim>48</dim>
					<dim>48</dim>
				</port>
			</output>
		</layer>
		<layer id="115" name="483/mean/Fused_Mul_94579459_const" type="Const" version="opset1">
			<data element_type="f32" offset="5418456" shape="64,128,1,1" size="32768"/>
			<output>
				<port id="1" precision="FP32">
					<dim>64</dim>
					<dim>128</dim>
					<dim>1</dim>
					<dim>1</dim>
				</port>
			</output>
		</layer>
		<layer id="116" name="482" type="Convolution" version="opset1">
			<data dilations="1,1" output_padding="0,0" pads_begin="0,0" pads_end="0,0" strides="1,1"/>
			<input>
				<port id="0">
					<dim>1</dim>
					<dim>128</dim>
					<dim>48</dim>
					<dim>48</dim>
				</port>
				<port id="1">
					<dim>64</dim>
					<dim>128</dim>
					<dim>1</dim>
					<dim>1</dim>
				</port>
			</input>
			<output>
				<port id="2" precision="FP32">
					<dim>1</dim>
					<dim>64</dim>
					<dim>48</dim>
					<dim>48</dim>
				</port>
			</output>
		</layer>
		<layer id="117" name="data_add_839584008736/EltwiseUnsqueeze8984_const" type="Const" version="opset1">
			<data element_type="f32" offset="5451224" shape="1,64,1,1" size="256"/>
			<output>
				<port id="1" precision="FP32">
					<dim>1</dim>
					<dim>64</dim>
					<dim>1</dim>
					<dim>1</dim>
				</port>
			</output>
		</layer>
		<layer id="118" name="483/variance/Fused_Add_" type="Add" version="opset1">
			<input>
				<port id="0">
					<dim>1</dim>
					<dim>64</dim>
					<dim>48</dim>
					<dim>48</dim>
				</port>
				<port id="1">
					<dim>1</dim>
					<dim>64</dim>
					<dim>1</dim>
					<dim>1</dim>
				</port>
			</input>
			<output>
				<port id="2" precision="FP32">
					<dim>1</dim>
					<dim>64</dim>
					<dim>48</dim>
					<dim>48</dim>
				</port>
			</output>
		</layer>
		<layer id="119" name="484" type="ReLU" version="opset1">
			<input>
				<port id="0">
					<dim>1</dim>
					<dim>64</dim>
					<dim>48</dim>
					<dim>48</dim>
				</port>
			</input>
			<output>
				<port id="1" precision="FP32">
					<dim>1</dim>
					<dim>64</dim>
					<dim>48</dim>
					<dim>48</dim>
				</port>
			</output>
		</layer>
		<layer id="120" name="1370613709_const" type="Const" version="opset1">
			<data element_type="f32" offset="5451480" shape="64,1,1,4,4" size="4096"/>
			<output>
				<port id="1" precision="FP32">
					<dim>64</dim>
					<dim>1</dim>
					<dim>1</dim>
					<dim>4</dim>
					<dim>4</dim>
				</port>
			</output>
		</layer>
		<layer id="121" name="485" type="GroupConvolutionBackpropData" version="opset1">
			<data dilations="1,1" output_padding="0,0" pads_begin="1,1" pads_end="1,1" strides="2,2"/>
			<input>
				<port id="0">
					<dim>1</dim>
					<dim>64</dim>
					<dim>48</dim>
					<dim>48</dim>
				</port>
				<port id="1">
					<dim>64</dim>
					<dim>1</dim>
					<dim>1</dim>
					<dim>4</dim>
					<dim>4</dim>
				</port>
			</input>
			<output>
				<port id="2" precision="FP32">
					<dim>1</dim>
					<dim>64</dim>
					<dim>96</dim>
					<dim>96</dim>
				</port>
			</output>
		</layer>
		<layer id="122" name="494" type="Concat" version="opset1">
			<data axis="1"/>
			<input>
				<port id="0">
					<dim>1</dim>
					<dim>64</dim>
					<dim>96</dim>
					<dim>96</dim>
				</port>
				<port id="1">
					<dim>1</dim>
					<dim>64</dim>
					<dim>96</dim>
					<dim>96</dim>
				</port>
			</input>
			<output>
				<port id="2" precision="FP32">
					<dim>1</dim>
					<dim>128</dim>
					<dim>96</dim>
					<dim>96</dim>
				</port>
			</output>
		</layer>
		<layer id="123" name="496/mean/Fused_Mul_94619463_const" type="Const" version="opset1">
			<data element_type="f32" offset="5455576" shape="64,128,3,3" size="294912"/>
			<output>
				<port id="1" precision="FP32">
					<dim>64</dim>
					<dim>128</dim>
					<dim>3</dim>
					<dim>3</dim>
				</port>
			</output>
		</layer>
		<layer id="124" name="495" type="Convolution" version="opset1">
			<data dilations="1,1" output_padding="0,0" pads_begin="1,1" pads_end="1,1" strides="1,1"/>
			<input>
				<port id="0">
					<dim>1</dim>
					<dim>128</dim>
					<dim>96</dim>
					<dim>96</dim>
				</port>
				<port id="1">
					<dim>64</dim>
					<dim>128</dim>
					<dim>3</dim>
					<dim>3</dim>
				</port>
			</input>
			<output>
				<port id="2" precision="FP32">
					<dim>1</dim>
					<dim>64</dim>
					<dim>96</dim>
					<dim>96</dim>
				</port>
			</output>
		</layer>
		<layer id="125" name="data_add_840384088738/EltwiseUnsqueeze8992_const" type="Const" version="opset1">
			<data element_type="f32" offset="5750488" shape="1,64,1,1" size="256"/>
			<output>
				<port id="1" precision="FP32">
					<dim>1</dim>
					<dim>64</dim>
					<dim>1</dim>
					<dim>1</dim>
				</port>
			</output>
		</layer>
		<layer id="126" name="496/variance/Fused_Add_" type="Add" version="opset1">
			<input>
				<port id="0">
					<dim>1</dim>
					<dim>64</dim>
					<dim>96</dim>
					<dim>96</dim>
				</port>
				<port id="1">
					<dim>1</dim>
					<dim>64</dim>
					<dim>1</dim>
					<dim>1</dim>
				</port>
			</input>
			<output>
				<port id="2" precision="FP32">
					<dim>1</dim>
					<dim>64</dim>
					<dim>96</dim>
					<dim>96</dim>
				</port>
			</output>
		</layer>
		<layer id="127" name="497" type="ReLU" version="opset1">
			<input>
				<port id="0">
					<dim>1</dim>
					<dim>64</dim>
					<dim>96</dim>
					<dim>96</dim>
				</port>
			</input>
			<output>
				<port id="1" precision="FP32">
					<dim>1</dim>
					<dim>64</dim>
					<dim>96</dim>
					<dim>96</dim>
				</port>
			</output>
		</layer>
		<layer id="128" name="402/mean/Fused_Mul_94659467_const" type="Const" version="opset1">
			<data element_type="f32" offset="5750744" shape="256,128,3,3" size="1179648"/>
			<output>
				<port id="1" precision="FP32">
					<dim>256</dim>
					<dim>128</dim>
					<dim>3</dim>
					<dim>3</dim>
				</port>
			</output>
		</layer>
		<layer id="129" name="401" type="Convolution" version="opset1">
			<data dilations="1,1" output_padding="0,0" pads_begin="1,1" pads_end="1,1" strides="2,2"/>
			<input>
				<port id="0">
					<dim>1</dim>
					<dim>128</dim>
					<dim>48</dim>
					<dim>48</dim>
				</port>
				<port id="1">
					<dim>256</dim>
					<dim>128</dim>
					<dim>3</dim>
					<dim>3</dim>
				</port>
			</input>
			<output>
				<port id="2" precision="FP32">
					<dim>1</dim>
					<dim>256</dim>
					<dim>24</dim>
					<dim>24</dim>
				</port>
			</output>
		</layer>
		<layer id="130" name="data_add_841184168740/EltwiseUnsqueeze9000_const" type="Const" version="opset1">
			<data element_type="f32" offset="6930392" shape="1,256,1,1" size="1024"/>
			<output>
				<port id="1" precision="FP32">
					<dim>1</dim>
					<dim>256</dim>
					<dim>1</dim>
					<dim>1</dim>
				</port>
			</output>
		</layer>
		<layer id="131" name="402/variance/Fused_Add_" type="Add" version="opset1">
			<input>
				<port id="0">
					<dim>1</dim>
					<dim>256</dim>
					<dim>24</dim>
					<dim>24</dim>
				</port>
				<port id="1">
					<dim>1</dim>
					<dim>256</dim>
					<dim>1</dim>
					<dim>1</dim>
				</port>
			</input>
			<output>
				<port id="2" precision="FP32">
					<dim>1</dim>
					<dim>256</dim>
					<dim>24</dim>
					<dim>24</dim>
				</port>
			</output>
		</layer>
		<layer id="132" name="403" type="ReLU" version="opset1">
			<input>
				<port id="0">
					<dim>1</dim>
					<dim>256</dim>
					<dim>24</dim>
					<dim>24</dim>
				</port>
			</input>
			<output>
				<port id="1" precision="FP32">
					<dim>1</dim>
					<dim>256</dim>
					<dim>24</dim>
					<dim>24</dim>
				</port>
			</output>
		</layer>
		<layer id="133" name="405/mean/Fused_Mul_94699471_const" type="Const" version="opset1">
			<data element_type="f32" offset="6931416" shape="256,256,3,3" size="2359296"/>
			<output>
				<port id="1" precision="FP32">
					<dim>256</dim>
					<dim>256</dim>
					<dim>3</dim>
					<dim>3</dim>
				</port>
			</output>
		</layer>
		<layer id="134" name="404" type="Convolution" version="opset1">
			<data dilations="1,1" output_padding="0,0" pads_begin="1,1" pads_end="1,1" strides="1,1"/>
			<input>
				<port id="0">
					<dim>1</dim>
					<dim>256</dim>
					<dim>24</dim>
					<dim>24</dim>
				</port>
				<port id="1">
					<dim>256</dim>
					<dim>256</dim>
					<dim>3</dim>
					<dim>3</dim>
				</port>
			</input>
			<output>
				<port id="2" precision="FP32">
					<dim>1</dim>
					<dim>256</dim>
					<dim>24</dim>
					<dim>24</dim>
				</port>
			</output>
		</layer>
		<layer id="135" name="data_add_841984248742/EltwiseUnsqueeze9008_const" type="Const" version="opset1">
			<data element_type="f32" offset="9290712" shape="1,256,1,1" size="1024"/>
			<output>
				<port id="1" precision="FP32">
					<dim>1</dim>
					<dim>256</dim>
					<dim>1</dim>
					<dim>1</dim>
				</port>
			</output>
		</layer>
		<layer id="136" name="405/variance/Fused_Add_" type="Add" version="opset1">
			<input>
				<port id="0">
					<dim>1</dim>
					<dim>256</dim>
					<dim>24</dim>
					<dim>24</dim>
				</port>
				<port id="1">
					<dim>1</dim>
					<dim>256</dim>
					<dim>1</dim>
					<dim>1</dim>
				</port>
			</input>
			<output>
				<port id="2" precision="FP32">
					<dim>1</dim>
					<dim>256</dim>
					<dim>24</dim>
					<dim>24</dim>
				</port>
			</output>
		</layer>
		<layer id="137" name="398" type="MaxPool" version="opset1">
			<data kernel="2,2" pads_begin="0,0" pads_end="0,0" rounding_type="floor" strides="2,2"/>
			<input>
				<port id="0">
					<dim>1</dim>
					<dim>128</dim>
					<dim>48</dim>
					<dim>48</dim>
				</port>
			</input>
			<output>
				<port id="1" precision="FP32">
					<dim>1</dim>
					<dim>128</dim>
					<dim>24</dim>
					<dim>24</dim>
				</port>
			</output>
		</layer>
		<layer id="138" name="400/mean/Fused_Mul_94739475_const" type="Const" version="opset1">
			<data element_type="f32" offset="9291736" shape="256,128,1,1" size="131072"/>
			<output>
				<port id="1" precision="FP32">
					<dim>256</dim>
					<dim>128</dim>
					<dim>1</dim>
					<dim>1</dim>
				</port>
			</output>
		</layer>
		<layer id="139" name="399" type="Convolution" version="opset1">
			<data dilations="1,1" output_padding="0,0" pads_begin="0,0" pads_end="0,0" strides="1,1"/>
			<input>
				<port id="0">
					<dim>1</dim>
					<dim>128</dim>
					<dim>24</dim>
					<dim>24</dim>
				</port>
				<port id="1">
					<dim>256</dim>
					<dim>128</dim>
					<dim>1</dim>
					<dim>1</dim>
				</port>
			</input>
			<output>
				<port id="2" precision="FP32">
					<dim>1</dim>
					<dim>256</dim>
					<dim>24</dim>
					<dim>24</dim>
				</port>
			</output>
		</layer>
		<layer id="140" name="data_add_842784328744/EltwiseUnsqueeze9016_const" type="Const" version="opset1">
			<data element_type="f32" offset="9422808" shape="1,256,1,1" size="1024"/>
			<output>
				<port id="1" precision="FP32">
					<dim>1</dim>
					<dim>256</dim>
					<dim>1</dim>
					<dim>1</dim>
				</port>
			</output>
		</layer>
		<layer id="141" name="400/variance/Fused_Add_" type="Add" version="opset1">
			<input>
				<port id="0">
					<dim>1</dim>
					<dim>256</dim>
					<dim>24</dim>
					<dim>24</dim>
				</port>
				<port id="1">
					<dim>1</dim>
					<dim>256</dim>
					<dim>1</dim>
					<dim>1</dim>
				</port>
			</input>
			<output>
				<port id="2" precision="FP32">
					<dim>1</dim>
					<dim>256</dim>
					<dim>24</dim>
					<dim>24</dim>
				</port>
			</output>
		</layer>
		<layer id="142" name="406" type="Add" version="opset1">
			<input>
				<port id="0">
					<dim>1</dim>
					<dim>256</dim>
					<dim>24</dim>
					<dim>24</dim>
				</port>
				<port id="1">
					<dim>1</dim>
					<dim>256</dim>
					<dim>24</dim>
					<dim>24</dim>
				</port>
			</input>
			<output>
				<port id="2" precision="FP32">
					<dim>1</dim>
					<dim>256</dim>
					<dim>24</dim>
					<dim>24</dim>
				</port>
			</output>
		</layer>
		<layer id="143" name="407" type="ReLU" version="opset1">
			<input>
				<port id="0">
					<dim>1</dim>
					<dim>256</dim>
					<dim>24</dim>
					<dim>24</dim>
				</port>
			</input>
			<output>
				<port id="1" precision="FP32">
					<dim>1</dim>
					<dim>256</dim>
					<dim>24</dim>
					<dim>24</dim>
				</port>
			</output>
		</layer>
		<layer id="144" name="409/mean/Fused_Mul_94779479_const" type="Const" version="opset1">
			<data element_type="f32" offset="9423832" shape="256,256,3,3" size="2359296"/>
			<output>
				<port id="1" precision="FP32">
					<dim>256</dim>
					<dim>256</dim>
					<dim>3</dim>
					<dim>3</dim>
				</port>
			</output>
		</layer>
		<layer id="145" name="408" type="Convolution" version="opset1">
			<data dilations="1,1" output_padding="0,0" pads_begin="1,1" pads_end="1,1" strides="1,1"/>
			<input>
				<port id="0">
					<dim>1</dim>
					<dim>256</dim>
					<dim>24</dim>
					<dim>24</dim>
				</port>
				<port id="1">
					<dim>256</dim>
					<dim>256</dim>
					<dim>3</dim>
					<dim>3</dim>
				</port>
			</input>
			<output>
				<port id="2" precision="FP32">
					<dim>1</dim>
					<dim>256</dim>
					<dim>24</dim>
					<dim>24</dim>
				</port>
			</output>
		</layer>
		<layer id="146" name="data_add_843584408746/EltwiseUnsqueeze9024_const" type="Const" version="opset1">
			<data element_type="f32" offset="11783128" shape="1,256,1,1" size="1024"/>
			<output>
				<port id="1" precision="FP32">
					<dim>1</dim>
					<dim>256</dim>
					<dim>1</dim>
					<dim>1</dim>
				</port>
			</output>
		</layer>
		<layer id="147" name="409/variance/Fused_Add_" type="Add" version="opset1">
			<input>
				<port id="0">
					<dim>1</dim>
					<dim>256</dim>
					<dim>24</dim>
					<dim>24</dim>
				</port>
				<port id="1">
					<dim>1</dim>
					<dim>256</dim>
					<dim>1</dim>
					<dim>1</dim>
				</port>
			</input>
			<output>
				<port id="2" precision="FP32">
					<dim>1</dim>
					<dim>256</dim>
					<dim>24</dim>
					<dim>24</dim>
				</port>
			</output>
		</layer>
		<layer id="148" name="410" type="ReLU" version="opset1">
			<input>
				<port id="0">
					<dim>1</dim>
					<dim>256</dim>
					<dim>24</dim>
					<dim>24</dim>
				</port>
			</input>
			<output>
				<port id="1" precision="FP32">
					<dim>1</dim>
					<dim>256</dim>
					<dim>24</dim>
					<dim>24</dim>
				</port>
			</output>
		</layer>
		<layer id="149" name="412/mean/Fused_Mul_94819483_const" type="Const" version="opset1">
			<data element_type="f32" offset="11784152" shape="256,256,3,3" size="2359296"/>
			<output>
				<port id="1" precision="FP32">
					<dim>256</dim>
					<dim>256</dim>
					<dim>3</dim>
					<dim>3</dim>
				</port>
			</output>
		</layer>
		<layer id="150" name="411" type="Convolution" version="opset1">
			<data dilations="1,1" output_padding="0,0" pads_begin="1,1" pads_end="1,1" strides="1,1"/>
			<input>
				<port id="0">
					<dim>1</dim>
					<dim>256</dim>
					<dim>24</dim>
					<dim>24</dim>
				</port>
				<port id="1">
					<dim>256</dim>
					<dim>256</dim>
					<dim>3</dim>
					<dim>3</dim>
				</port>
			</input>
			<output>
				<port id="2" precision="FP32">
					<dim>1</dim>
					<dim>256</dim>
					<dim>24</dim>
					<dim>24</dim>
				</port>
			</output>
		</layer>
		<layer id="151" name="data_add_844384488748/EltwiseUnsqueeze9032_const" type="Const" version="opset1">
			<data element_type="f32" offset="14143448" shape="1,256,1,1" size="1024"/>
			<output>
				<port id="1" precision="FP32">
					<dim>1</dim>
					<dim>256</dim>
					<dim>1</dim>
					<dim>1</dim>
				</port>
			</output>
		</layer>
		<layer id="152" name="412/variance/Fused_Add_" type="Add" version="opset1">
			<input>
				<port id="0">
					<dim>1</dim>
					<dim>256</dim>
					<dim>24</dim>
					<dim>24</dim>
				</port>
				<port id="1">
					<dim>1</dim>
					<dim>256</dim>
					<dim>1</dim>
					<dim>1</dim>
				</port>
			</input>
			<output>
				<port id="2" precision="FP32">
					<dim>1</dim>
					<dim>256</dim>
					<dim>24</dim>
					<dim>24</dim>
				</port>
			</output>
		</layer>
		<layer id="153" name="413" type="Add" version="opset1">
			<input>
				<port id="0">
					<dim>1</dim>
					<dim>256</dim>
					<dim>24</dim>
					<dim>24</dim>
				</port>
				<port id="1">
					<dim>1</dim>
					<dim>256</dim>
					<dim>24</dim>
					<dim>24</dim>
				</port>
			</input>
			<output>
				<port id="2" precision="FP32">
					<dim>1</dim>
					<dim>256</dim>
					<dim>24</dim>
					<dim>24</dim>
				</port>
			</output>
		</layer>
		<layer id="154" name="414" type="ReLU" version="opset1">
			<input>
				<port id="0">
					<dim>1</dim>
					<dim>256</dim>
					<dim>24</dim>
					<dim>24</dim>
				</port>
			</input>
			<output>
				<port id="1" precision="FP32">
					<dim>1</dim>
					<dim>256</dim>
					<dim>24</dim>
					<dim>24</dim>
				</port>
			</output>
		</layer>
		<layer id="155" name="415" type="Concat" version="opset1">
			<data axis="1"/>
			<input>
				<port id="0">
					<dim>1</dim>
					<dim>256</dim>
					<dim>24</dim>
					<dim>24</dim>
				</port>
				<port id="1">
					<dim>1</dim>
					<dim>256</dim>
					<dim>24</dim>
					<dim>24</dim>
				</port>
			</input>
			<output>
				<port id="2" precision="FP32">
					<dim>1</dim>
					<dim>512</dim>
					<dim>24</dim>
					<dim>24</dim>
				</port>
			</output>
		</layer>
		<layer id="156" name="417/mean/Fused_Mul_94859487_const" type="Const" version="opset1">
			<data element_type="f32" offset="14144472" shape="256,512,1,1" size="524288"/>
			<output>
				<port id="1" precision="FP32">
					<dim>256</dim>
					<dim>512</dim>
					<dim>1</dim>
					<dim>1</dim>
				</port>
			</output>
		</layer>
		<layer id="157" name="416" type="Convolution" version="opset1">
			<data dilations="1,1" output_padding="0,0" pads_begin="0,0" pads_end="0,0" strides="1,1"/>
			<input>
				<port id="0">
					<dim>1</dim>
					<dim>512</dim>
					<dim>24</dim>
					<dim>24</dim>
				</port>
				<port id="1">
					<dim>256</dim>
					<dim>512</dim>
					<dim>1</dim>
					<dim>1</dim>
				</port>
			</input>
			<output>
				<port id="2" precision="FP32">
					<dim>1</dim>
					<dim>256</dim>
					<dim>24</dim>
					<dim>24</dim>
				</port>
			</output>
		</layer>
		<layer id="158" name="data_add_845184568750/EltwiseUnsqueeze9040_const" type="Const" version="opset1">
			<data element_type="f32" offset="14668760" shape="1,256,1,1" size="1024"/>
			<output>
				<port id="1" precision="FP32">
					<dim>1</dim>
					<dim>256</dim>
					<dim>1</dim>
					<dim>1</dim>
				</port>
			</output>
		</layer>
		<layer id="159" name="417/variance/Fused_Add_" type="Add" version="opset1">
			<input>
				<port id="0">
					<dim>1</dim>
					<dim>256</dim>
					<dim>24</dim>
					<dim>24</dim>
				</port>
				<port id="1">
					<dim>1</dim>
					<dim>256</dim>
					<dim>1</dim>
					<dim>1</dim>
				</port>
			</input>
			<output>
				<port id="2" precision="FP32">
					<dim>1</dim>
					<dim>256</dim>
					<dim>24</dim>
					<dim>24</dim>
				</port>
			</output>
		</layer>
		<layer id="160" name="418" type="ReLU" version="opset1">
			<input>
				<port id="0">
					<dim>1</dim>
					<dim>256</dim>
					<dim>24</dim>
					<dim>24</dim>
				</port>
			</input>
			<output>
				<port id="1" precision="FP32">
					<dim>1</dim>
					<dim>256</dim>
					<dim>24</dim>
					<dim>24</dim>
				</port>
			</output>
		</layer>
		<layer id="161" name="420/mean/Fused_Mul_94899491_const" type="Const" version="opset1">
			<data element_type="f32" offset="14669784" shape="256,256,3,3" size="2359296"/>
			<output>
				<port id="1" precision="FP32">
					<dim>256</dim>
					<dim>256</dim>
					<dim>3</dim>
					<dim>3</dim>
				</port>
			</output>
		</layer>
		<layer id="162" name="419" type="Convolution" version="opset1">
			<data dilations="1,1" output_padding="0,0" pads_begin="1,1" pads_end="1,1" strides="1,1"/>
			<input>
				<port id="0">
					<dim>1</dim>
					<dim>256</dim>
					<dim>24</dim>
					<dim>24</dim>
				</port>
				<port id="1">
					<dim>256</dim>
					<dim>256</dim>
					<dim>3</dim>
					<dim>3</dim>
				</port>
			</input>
			<output>
				<port id="2" precision="FP32">
					<dim>1</dim>
					<dim>256</dim>
					<dim>24</dim>
					<dim>24</dim>
				</port>
			</output>
		</layer>
		<layer id="163" name="data_add_845984648752/EltwiseUnsqueeze9048_const" type="Const" version="opset1">
			<data element_type="f32" offset="17029080" shape="1,256,1,1" size="1024"/>
			<output>
				<port id="1" precision="FP32">
					<dim>1</dim>
					<dim>256</dim>
					<dim>1</dim>
					<dim>1</dim>
				</port>
			</output>
		</layer>
		<layer id="164" name="420/variance/Fused_Add_" type="Add" version="opset1">
			<input>
				<port id="0">
					<dim>1</dim>
					<dim>256</dim>
					<dim>24</dim>
					<dim>24</dim>
				</port>
				<port id="1">
					<dim>1</dim>
					<dim>256</dim>
					<dim>1</dim>
					<dim>1</dim>
				</port>
			</input>
			<output>
				<port id="2" precision="FP32">
					<dim>1</dim>
					<dim>256</dim>
					<dim>24</dim>
					<dim>24</dim>
				</port>
			</output>
		</layer>
		<layer id="165" name="421" type="ReLU" version="opset1">
			<input>
				<port id="0">
					<dim>1</dim>
					<dim>256</dim>
					<dim>24</dim>
					<dim>24</dim>
				</port>
			</input>
			<output>
				<port id="1" precision="FP32">
					<dim>1</dim>
					<dim>256</dim>
					<dim>24</dim>
					<dim>24</dim>
				</port>
			</output>
		</layer>
		<layer id="166" name="423/mean/Fused_Mul_94939495_const" type="Const" version="opset1">
			<data element_type="f32" offset="17030104" shape="256,256,3,3" size="2359296"/>
			<output>
				<port id="1" precision="FP32">
					<dim>256</dim>
					<dim>256</dim>
					<dim>3</dim>
					<dim>3</dim>
				</port>
			</output>
		</layer>
		<layer id="167" name="422" type="Convolution" version="opset1">
			<data dilations="1,1" output_padding="0,0" pads_begin="1,1" pads_end="1,1" strides="1,1"/>
			<input>
				<port id="0">
					<dim>1</dim>
					<dim>256</dim>
					<dim>24</dim>
					<dim>24</dim>
				</port>
				<port id="1">
					<dim>256</dim>
					<dim>256</dim>
					<dim>3</dim>
					<dim>3</dim>
				</port>
			</input>
			<output>
				<port id="2" precision="FP32">
					<dim>1</dim>
					<dim>256</dim>
					<dim>24</dim>
					<dim>24</dim>
				</port>
			</output>
		</layer>
		<layer id="168" name="data_add_846784728754/EltwiseUnsqueeze9056_const" type="Const" version="opset1">
			<data element_type="f32" offset="19389400" shape="1,256,1,1" size="1024"/>
			<output>
				<port id="1" precision="FP32">
					<dim>1</dim>
					<dim>256</dim>
					<dim>1</dim>
					<dim>1</dim>
				</port>
			</output>
		</layer>
		<layer id="169" name="423/variance/Fused_Add_" type="Add" version="opset1">
			<input>
				<port id="0">
					<dim>1</dim>
					<dim>256</dim>
					<dim>24</dim>
					<dim>24</dim>
				</port>
				<port id="1">
					<dim>1</dim>
					<dim>256</dim>
					<dim>1</dim>
					<dim>1</dim>
				</port>
			</input>
			<output>
				<port id="2" precision="FP32">
					<dim>1</dim>
					<dim>256</dim>
					<dim>24</dim>
					<dim>24</dim>
				</port>
			</output>
		</layer>
		<layer id="170" name="424" type="Add" version="opset1">
			<input>
				<port id="0">
					<dim>1</dim>
					<dim>256</dim>
					<dim>24</dim>
					<dim>24</dim>
				</port>
				<port id="1">
					<dim>1</dim>
					<dim>256</dim>
					<dim>24</dim>
					<dim>24</dim>
				</port>
			</input>
			<output>
				<port id="2" precision="FP32">
					<dim>1</dim>
					<dim>256</dim>
					<dim>24</dim>
					<dim>24</dim>
				</port>
			</output>
		</layer>
		<layer id="171" name="425" type="ReLU" version="opset1">
			<input>
				<port id="0">
					<dim>1</dim>
					<dim>256</dim>
					<dim>24</dim>
					<dim>24</dim>
				</port>
			</input>
			<output>
				<port id="1" precision="FP32">
					<dim>1</dim>
					<dim>256</dim>
					<dim>24</dim>
					<dim>24</dim>
				</port>
			</output>
		</layer>
		<layer id="172" name="427/mean/Fused_Mul_94979499_const" type="Const" version="opset1">
			<data element_type="f32" offset="19390424" shape="256,256,3,3" size="2359296"/>
			<output>
				<port id="1" precision="FP32">
					<dim>256</dim>
					<dim>256</dim>
					<dim>3</dim>
					<dim>3</dim>
				</port>
			</output>
		</layer>
		<layer id="173" name="426" type="Convolution" version="opset1">
			<data dilations="1,1" output_padding="0,0" pads_begin="1,1" pads_end="1,1" strides="1,1"/>
			<input>
				<port id="0">
					<dim>1</dim>
					<dim>256</dim>
					<dim>24</dim>
					<dim>24</dim>
				</port>
				<port id="1">
					<dim>256</dim>
					<dim>256</dim>
					<dim>3</dim>
					<dim>3</dim>
				</port>
			</input>
			<output>
				<port id="2" precision="FP32">
					<dim>1</dim>
					<dim>256</dim>
					<dim>24</dim>
					<dim>24</dim>
				</port>
			</output>
		</layer>
		<layer id="174" name="data_add_847584808756/EltwiseUnsqueeze9064_const" type="Const" version="opset1">
			<data element_type="f32" offset="21749720" shape="1,256,1,1" size="1024"/>
			<output>
				<port id="1" precision="FP32">
					<dim>1</dim>
					<dim>256</dim>
					<dim>1</dim>
					<dim>1</dim>
				</port>
			</output>
		</layer>
		<layer id="175" name="427/variance/Fused_Add_" type="Add" version="opset1">
			<input>
				<port id="0">
					<dim>1</dim>
					<dim>256</dim>
					<dim>24</dim>
					<dim>24</dim>
				</port>
				<port id="1">
					<dim>1</dim>
					<dim>256</dim>
					<dim>1</dim>
					<dim>1</dim>
				</port>
			</input>
			<output>
				<port id="2" precision="FP32">
					<dim>1</dim>
					<dim>256</dim>
					<dim>24</dim>
					<dim>24</dim>
				</port>
			</output>
		</layer>
		<layer id="176" name="428" type="ReLU" version="opset1">
			<input>
				<port id="0">
					<dim>1</dim>
					<dim>256</dim>
					<dim>24</dim>
					<dim>24</dim>
				</port>
			</input>
			<output>
				<port id="1" precision="FP32">
					<dim>1</dim>
					<dim>256</dim>
					<dim>24</dim>
					<dim>24</dim>
				</port>
			</output>
		</layer>
		<layer id="177" name="430/mean/Fused_Mul_95019503_const" type="Const" version="opset1">
			<data element_type="f32" offset="21750744" shape="256,256,3,3" size="2359296"/>
			<output>
				<port id="1" precision="FP32">
					<dim>256</dim>
					<dim>256</dim>
					<dim>3</dim>
					<dim>3</dim>
				</port>
			</output>
		</layer>
		<layer id="178" name="429" type="Convolution" version="opset1">
			<data dilations="1,1" output_padding="0,0" pads_begin="1,1" pads_end="1,1" strides="1,1"/>
			<input>
				<port id="0">
					<dim>1</dim>
					<dim>256</dim>
					<dim>24</dim>
					<dim>24</dim>
				</port>
				<port id="1">
					<dim>256</dim>
					<dim>256</dim>
					<dim>3</dim>
					<dim>3</dim>
				</port>
			</input>
			<output>
				<port id="2" precision="FP32">
					<dim>1</dim>
					<dim>256</dim>
					<dim>24</dim>
					<dim>24</dim>
				</port>
			</output>
		</layer>
		<layer id="179" name="data_add_848384888758/EltwiseUnsqueeze9072_const" type="Const" version="opset1">
			<data element_type="f32" offset="24110040" shape="1,256,1,1" size="1024"/>
			<output>
				<port id="1" precision="FP32">
					<dim>1</dim>
					<dim>256</dim>
					<dim>1</dim>
					<dim>1</dim>
				</port>
			</output>
		</layer>
		<layer id="180" name="430/variance/Fused_Add_" type="Add" version="opset1">
			<input>
				<port id="0">
					<dim>1</dim>
					<dim>256</dim>
					<dim>24</dim>
					<dim>24</dim>
				</port>
				<port id="1">
					<dim>1</dim>
					<dim>256</dim>
					<dim>1</dim>
					<dim>1</dim>
				</port>
			</input>
			<output>
				<port id="2" precision="FP32">
					<dim>1</dim>
					<dim>256</dim>
					<dim>24</dim>
					<dim>24</dim>
				</port>
			</output>
		</layer>
		<layer id="181" name="431" type="Add" version="opset1">
			<input>
				<port id="0">
					<dim>1</dim>
					<dim>256</dim>
					<dim>24</dim>
					<dim>24</dim>
				</port>
				<port id="1">
					<dim>1</dim>
					<dim>256</dim>
					<dim>24</dim>
					<dim>24</dim>
				</port>
			</input>
			<output>
				<port id="2" precision="FP32">
					<dim>1</dim>
					<dim>256</dim>
					<dim>24</dim>
					<dim>24</dim>
				</port>
			</output>
		</layer>
		<layer id="182" name="432" type="ReLU" version="opset1">
			<input>
				<port id="0">
					<dim>1</dim>
					<dim>256</dim>
					<dim>24</dim>
					<dim>24</dim>
				</port>
			</input>
			<output>
				<port id="1" precision="FP32">
					<dim>1</dim>
					<dim>256</dim>
					<dim>24</dim>
					<dim>24</dim>
				</port>
			</output>
		</layer>
		<layer id="183" name="397" type="MaxPool" version="opset1">
			<data kernel="2,2" pads_begin="0,0" pads_end="0,0" rounding_type="floor" strides="2,2"/>
			<input>
				<port id="0">
					<dim>1</dim>
					<dim>128</dim>
					<dim>48</dim>
					<dim>48</dim>
				</port>
			</input>
			<output>
				<port id="1" precision="FP32">
					<dim>1</dim>
					<dim>128</dim>
					<dim>24</dim>
					<dim>24</dim>
				</port>
			</output>
		</layer>
		<layer id="184" name="433" type="Concat" version="opset1">
			<data axis="1"/>
			<input>
				<port id="0">
					<dim>1</dim>
					<dim>256</dim>
					<dim>24</dim>
					<dim>24</dim>
				</port>
				<port id="1">
					<dim>1</dim>
					<dim>256</dim>
					<dim>24</dim>
					<dim>24</dim>
				</port>
				<port id="2">
					<dim>1</dim>
					<dim>128</dim>
					<dim>24</dim>
					<dim>24</dim>
				</port>
				<port id="3">
					<dim>1</dim>
					<dim>256</dim>
					<dim>24</dim>
					<dim>24</dim>
				</port>
			</input>
			<output>
				<port id="4" precision="FP32">
					<dim>1</dim>
					<dim>896</dim>
					<dim>24</dim>
					<dim>24</dim>
				</port>
			</output>
		</layer>
		<layer id="185" name="435/mean/Fused_Mul_95059507_const" type="Const" version="opset1">
			<data element_type="f32" offset="24111064" shape="256,896,1,1" size="917504"/>
			<output>
				<port id="1" precision="FP32">
					<dim>256</dim>
					<dim>896</dim>
					<dim>1</dim>
					<dim>1</dim>
				</port>
			</output>
		</layer>
		<layer id="186" name="434" type="Convolution" version="opset1">
			<data dilations="1,1" output_padding="0,0" pads_begin="0,0" pads_end="0,0" strides="1,1"/>
			<input>
				<port id="0">
					<dim>1</dim>
					<dim>896</dim>
					<dim>24</dim>
					<dim>24</dim>
				</port>
				<port id="1">
					<dim>256</dim>
					<dim>896</dim>
					<dim>1</dim>
					<dim>1</dim>
				</port>
			</input>
			<output>
				<port id="2" precision="FP32">
					<dim>1</dim>
					<dim>256</dim>
					<dim>24</dim>
					<dim>24</dim>
				</port>
			</output>
		</layer>
		<layer id="187" name="data_add_849184968760/EltwiseUnsqueeze9080_const" type="Const" version="opset1">
			<data element_type="f32" offset="25028568" shape="1,256,1,1" size="1024"/>
			<output>
				<port id="1" precision="FP32">
					<dim>1</dim>
					<dim>256</dim>
					<dim>1</dim>
					<dim>1</dim>
				</port>
			</output>
		</layer>
		<layer id="188" name="435/variance/Fused_Add_" type="Add" version="opset1">
			<input>
				<port id="0">
					<dim>1</dim>
					<dim>256</dim>
					<dim>24</dim>
					<dim>24</dim>
				</port>
				<port id="1">
					<dim>1</dim>
					<dim>256</dim>
					<dim>1</dim>
					<dim>1</dim>
				</port>
			</input>
			<output>
				<port id="2" precision="FP32">
					<dim>1</dim>
					<dim>256</dim>
					<dim>24</dim>
					<dim>24</dim>
				</port>
			</output>
		</layer>
		<layer id="189" name="436" type="ReLU" version="opset1">
			<input>
				<port id="0">
					<dim>1</dim>
					<dim>256</dim>
					<dim>24</dim>
					<dim>24</dim>
				</port>
			</input>
			<output>
				<port id="1" precision="FP32">
					<dim>1</dim>
					<dim>256</dim>
					<dim>24</dim>
					<dim>24</dim>
				</port>
			</output>
		</layer>
		<layer id="190" name="467/mean/Fused_Mul_95099511_const" type="Const" version="opset1">
			<data element_type="f32" offset="25029592" shape="128,256,1,1" size="131072"/>
			<output>
				<port id="1" precision="FP32">
					<dim>128</dim>
					<dim>256</dim>
					<dim>1</dim>
					<dim>1</dim>
				</port>
			</output>
		</layer>
		<layer id="191" name="466" type="Convolution" version="opset1">
			<data dilations="1,1" output_padding="0,0" pads_begin="0,0" pads_end="0,0" strides="1,1"/>
			<input>
				<port id="0">
					<dim>1</dim>
					<dim>256</dim>
					<dim>24</dim>
					<dim>24</dim>
				</port>
				<port id="1">
					<dim>128</dim>
					<dim>256</dim>
					<dim>1</dim>
					<dim>1</dim>
				</port>
			</input>
			<output>
				<port id="2" precision="FP32">
					<dim>1</dim>
					<dim>128</dim>
					<dim>24</dim>
					<dim>24</dim>
				</port>
			</output>
		</layer>
		<layer id="192" name="data_add_849985048762/EltwiseUnsqueeze9088_const" type="Const" version="opset1">
			<data element_type="f32" offset="25160664" shape="1,128,1,1" size="512"/>
			<output>
				<port id="1" precision="FP32">
					<dim>1</dim>
					<dim>128</dim>
					<dim>1</dim>
					<dim>1</dim>
				</port>
			</output>
		</layer>
		<layer id="193" name="467/variance/Fused_Add_" type="Add" version="opset1">
			<input>
				<port id="0">
					<dim>1</dim>
					<dim>128</dim>
					<dim>24</dim>
					<dim>24</dim>
				</port>
				<port id="1">
					<dim>1</dim>
					<dim>128</dim>
					<dim>1</dim>
					<dim>1</dim>
				</port>
			</input>
			<output>
				<port id="2" precision="FP32">
					<dim>1</dim>
					<dim>128</dim>
					<dim>24</dim>
					<dim>24</dim>
				</port>
			</output>
		</layer>
		<layer id="194" name="468" type="ReLU" version="opset1">
			<input>
				<port id="0">
					<dim>1</dim>
					<dim>128</dim>
					<dim>24</dim>
					<dim>24</dim>
				</port>
			</input>
			<output>
				<port id="1" precision="FP32">
					<dim>1</dim>
					<dim>128</dim>
					<dim>24</dim>
					<dim>24</dim>
				</port>
			</output>
		</layer>
		<layer id="195" name="1370213705_const" type="Const" version="opset1">
			<data element_type="f32" offset="25161176" shape="128,1,1,4,4" size="8192"/>
			<output>
				<port id="1" precision="FP32">
					<dim>128</dim>
					<dim>1</dim>
					<dim>1</dim>
					<dim>4</dim>
					<dim>4</dim>
				</port>
			</output>
		</layer>
		<layer id="196" name="469" type="GroupConvolutionBackpropData" version="opset1">
			<data dilations="1,1" output_padding="0,0" pads_begin="1,1" pads_end="1,1" strides="2,2"/>
			<input>
				<port id="0">
					<dim>1</dim>
					<dim>128</dim>
					<dim>24</dim>
					<dim>24</dim>
				</port>
				<port id="1">
					<dim>128</dim>
					<dim>1</dim>
					<dim>1</dim>
					<dim>4</dim>
					<dim>4</dim>
				</port>
			</input>
			<output>
				<port id="2" precision="FP32">
					<dim>1</dim>
					<dim>128</dim>
					<dim>48</dim>
					<dim>48</dim>
				</port>
			</output>
		</layer>
		<layer id="197" name="474" type="Concat" version="opset1">
			<data axis="1"/>
			<input>
				<port id="0">
					<dim>1</dim>
					<dim>128</dim>
					<dim>48</dim>
					<dim>48</dim>
				</port>
				<port id="1">
					<dim>1</dim>
					<dim>128</dim>
					<dim>48</dim>
					<dim>48</dim>
				</port>
			</input>
			<output>
				<port id="2" precision="FP32">
					<dim>1</dim>
					<dim>256</dim>
					<dim>48</dim>
					<dim>48</dim>
				</port>
			</output>
		</layer>
		<layer id="198" name="476/mean/Fused_Mul_95139515_const" type="Const" version="opset1">
			<data element_type="f32" offset="25169368" shape="128,256,3,3" size="1179648"/>
			<output>
				<port id="1" precision="FP32">
					<dim>128</dim>
					<dim>256</dim>
					<dim>3</dim>
					<dim>3</dim>
				</port>
			</output>
		</layer>
		<layer id="199" name="475" type="Convolution" version="opset1">
			<data dilations="1,1" output_padding="0,0" pads_begin="1,1" pads_end="1,1" strides="1,1"/>
			<input>
				<port id="0">
					<dim>1</dim>
					<dim>256</dim>
					<dim>48</dim>
					<dim>48</dim>
				</port>
				<port id="1">
					<dim>128</dim>
					<dim>256</dim>
					<dim>3</dim>
					<dim>3</dim>
				</port>
			</input>
			<output>
				<port id="2" precision="FP32">
					<dim>1</dim>
					<dim>128</dim>
					<dim>48</dim>
					<dim>48</dim>
				</port>
			</output>
		</layer>
		<layer id="200" name="data_add_850785128764/EltwiseUnsqueeze9096_const" type="Const" version="opset1">
			<data element_type="f32" offset="26349016" shape="1,128,1,1" size="512"/>
			<output>
				<port id="1" precision="FP32">
					<dim>1</dim>
					<dim>128</dim>
					<dim>1</dim>
					<dim>1</dim>
				</port>
			</output>
		</layer>
		<layer id="201" name="476/variance/Fused_Add_" type="Add" version="opset1">
			<input>
				<port id="0">
					<dim>1</dim>
					<dim>128</dim>
					<dim>48</dim>
					<dim>48</dim>
				</port>
				<port id="1">
					<dim>1</dim>
					<dim>128</dim>
					<dim>1</dim>
					<dim>1</dim>
				</port>
			</input>
			<output>
				<port id="2" precision="FP32">
					<dim>1</dim>
					<dim>128</dim>
					<dim>48</dim>
					<dim>48</dim>
				</port>
			</output>
		</layer>
		<layer id="202" name="477" type="ReLU" version="opset1">
			<input>
				<port id="0">
					<dim>1</dim>
					<dim>128</dim>
					<dim>48</dim>
					<dim>48</dim>
				</port>
			</input>
			<output>
				<port id="1" precision="FP32">
					<dim>1</dim>
					<dim>128</dim>
					<dim>48</dim>
					<dim>48</dim>
				</port>
			</output>
		</layer>
		<layer id="203" name="487/mean/Fused_Mul_95179519_const" type="Const" version="opset1">
			<data element_type="f32" offset="26349528" shape="64,128,1,1" size="32768"/>
			<output>
				<port id="1" precision="FP32">
					<dim>64</dim>
					<dim>128</dim>
					<dim>1</dim>
					<dim>1</dim>
				</port>
			</output>
		</layer>
		<layer id="204" name="486" type="Convolution" version="opset1">
			<data dilations="1,1" output_padding="0,0" pads_begin="0,0" pads_end="0,0" strides="1,1"/>
			<input>
				<port id="0">
					<dim>1</dim>
					<dim>128</dim>
					<dim>48</dim>
					<dim>48</dim>
				</port>
				<port id="1">
					<dim>64</dim>
					<dim>128</dim>
					<dim>1</dim>
					<dim>1</dim>
				</port>
			</input>
			<output>
				<port id="2" precision="FP32">
					<dim>1</dim>
					<dim>64</dim>
					<dim>48</dim>
					<dim>48</dim>
				</port>
			</output>
		</layer>
		<layer id="205" name="data_add_851585208766/EltwiseUnsqueeze9104_const" type="Const" version="opset1">
			<data element_type="f32" offset="26382296" shape="1,64,1,1" size="256"/>
			<output>
				<port id="1" precision="FP32">
					<dim>1</dim>
					<dim>64</dim>
					<dim>1</dim>
					<dim>1</dim>
				</port>
			</output>
		</layer>
		<layer id="206" name="487/variance/Fused_Add_" type="Add" version="opset1">
			<input>
				<port id="0">
					<dim>1</dim>
					<dim>64</dim>
					<dim>48</dim>
					<dim>48</dim>
				</port>
				<port id="1">
					<dim>1</dim>
					<dim>64</dim>
					<dim>1</dim>
					<dim>1</dim>
				</port>
			</input>
			<output>
				<port id="2" precision="FP32">
					<dim>1</dim>
					<dim>64</dim>
					<dim>48</dim>
					<dim>48</dim>
				</port>
			</output>
		</layer>
		<layer id="207" name="488" type="ReLU" version="opset1">
			<input>
				<port id="0">
					<dim>1</dim>
					<dim>64</dim>
					<dim>48</dim>
					<dim>48</dim>
				</port>
			</input>
			<output>
				<port id="1" precision="FP32">
					<dim>1</dim>
					<dim>64</dim>
					<dim>48</dim>
					<dim>48</dim>
				</port>
			</output>
		</layer>
		<layer id="208" name="1371413717_const" type="Const" version="opset1">
			<data element_type="f32" offset="26382552" shape="64,1,1,4,4" size="4096"/>
			<output>
				<port id="1" precision="FP32">
					<dim>64</dim>
					<dim>1</dim>
					<dim>1</dim>
					<dim>4</dim>
					<dim>4</dim>
				</port>
			</output>
		</layer>
		<layer id="209" name="489" type="GroupConvolutionBackpropData" version="opset1">
			<data dilations="1,1" output_padding="0,0" pads_begin="1,1" pads_end="1,1" strides="2,2"/>
			<input>
				<port id="0">
					<dim>1</dim>
					<dim>64</dim>
					<dim>48</dim>
					<dim>48</dim>
				</port>
				<port id="1">
					<dim>64</dim>
					<dim>1</dim>
					<dim>1</dim>
					<dim>4</dim>
					<dim>4</dim>
				</port>
			</input>
			<output>
				<port id="2" precision="FP32">
					<dim>1</dim>
					<dim>64</dim>
					<dim>96</dim>
					<dim>96</dim>
				</port>
			</output>
		</layer>
		<layer id="210" name="498" type="Concat" version="opset1">
			<data axis="1"/>
			<input>
				<port id="0">
					<dim>1</dim>
					<dim>64</dim>
					<dim>96</dim>
					<dim>96</dim>
				</port>
				<port id="1">
					<dim>1</dim>
					<dim>64</dim>
					<dim>96</dim>
					<dim>96</dim>
				</port>
			</input>
			<output>
				<port id="2" precision="FP32">
					<dim>1</dim>
					<dim>128</dim>
					<dim>96</dim>
					<dim>96</dim>
				</port>
			</output>
		</layer>
		<layer id="211" name="500/mean/Fused_Mul_95219523_const" type="Const" version="opset1">
			<data element_type="f32" offset="26386648" shape="64,128,3,3" size="294912"/>
			<output>
				<port id="1" precision="FP32">
					<dim>64</dim>
					<dim>128</dim>
					<dim>3</dim>
					<dim>3</dim>
				</port>
			</output>
		</layer>
		<layer id="212" name="499" type="Convolution" version="opset1">
			<data dilations="1,1" output_padding="0,0" pads_begin="1,1" pads_end="1,1" strides="1,1"/>
			<input>
				<port id="0">
					<dim>1</dim>
					<dim>128</dim>
					<dim>96</dim>
					<dim>96</dim>
				</port>
				<port id="1">
					<dim>64</dim>
					<dim>128</dim>
					<dim>3</dim>
					<dim>3</dim>
				</port>
			</input>
			<output>
				<port id="2" precision="FP32">
					<dim>1</dim>
					<dim>64</dim>
					<dim>96</dim>
					<dim>96</dim>
				</port>
			</output>
		</layer>
		<layer id="213" name="data_add_852385288768/EltwiseUnsqueeze9112_const" type="Const" version="opset1">
			<data element_type="f32" offset="26681560" shape="1,64,1,1" size="256"/>
			<output>
				<port id="1" precision="FP32">
					<dim>1</dim>
					<dim>64</dim>
					<dim>1</dim>
					<dim>1</dim>
				</port>
			</output>
		</layer>
		<layer id="214" name="500/variance/Fused_Add_" type="Add" version="opset1">
			<input>
				<port id="0">
					<dim>1</dim>
					<dim>64</dim>
					<dim>96</dim>
					<dim>96</dim>
				</port>
				<port id="1">
					<dim>1</dim>
					<dim>64</dim>
					<dim>1</dim>
					<dim>1</dim>
				</port>
			</input>
			<output>
				<port id="2" precision="FP32">
					<dim>1</dim>
					<dim>64</dim>
					<dim>96</dim>
					<dim>96</dim>
				</port>
			</output>
		</layer>
		<layer id="215" name="501" type="ReLU" version="opset1">
			<input>
				<port id="0">
					<dim>1</dim>
					<dim>64</dim>
					<dim>96</dim>
					<dim>96</dim>
				</port>
			</input>
			<output>
				<port id="1" precision="FP32">
					<dim>1</dim>
					<dim>64</dim>
					<dim>96</dim>
					<dim>96</dim>
				</port>
			</output>
		</layer>
		<layer id="216" name="441/mean/Fused_Mul_95259527_const" type="Const" version="opset1">
			<data element_type="f32" offset="26681816" shape="512,256,3,3" size="4718592"/>
			<output>
				<port id="1" precision="FP32">
					<dim>512</dim>
					<dim>256</dim>
					<dim>3</dim>
					<dim>3</dim>
				</port>
			</output>
		</layer>
		<layer id="217" name="440" type="Convolution" version="opset1">
			<data dilations="1,1" output_padding="0,0" pads_begin="1,1" pads_end="1,1" strides="2,2"/>
			<input>
				<port id="0">
					<dim>1</dim>
					<dim>256</dim>
					<dim>24</dim>
					<dim>24</dim>
				</port>
				<port id="1">
					<dim>512</dim>
					<dim>256</dim>
					<dim>3</dim>
					<dim>3</dim>
				</port>
			</input>
			<output>
				<port id="2" precision="FP32">
					<dim>1</dim>
					<dim>512</dim>
					<dim>12</dim>
					<dim>12</dim>
				</port>
			</output>
		</layer>
		<layer id="218" name="data_add_853185368770/EltwiseUnsqueeze9120_const" type="Const" version="opset1">
			<data element_type="f32" offset="31400408" shape="1,512,1,1" size="2048"/>
			<output>
				<port id="1" precision="FP32">
					<dim>1</dim>
					<dim>512</dim>
					<dim>1</dim>
					<dim>1</dim>
				</port>
			</output>
		</layer>
		<layer id="219" name="441/variance/Fused_Add_" type="Add" version="opset1">
			<input>
				<port id="0">
					<dim>1</dim>
					<dim>512</dim>
					<dim>12</dim>
					<dim>12</dim>
				</port>
				<port id="1">
					<dim>1</dim>
					<dim>512</dim>
					<dim>1</dim>
					<dim>1</dim>
				</port>
			</input>
			<output>
				<port id="2" precision="FP32">
					<dim>1</dim>
					<dim>512</dim>
					<dim>12</dim>
					<dim>12</dim>
				</port>
			</output>
		</layer>
		<layer id="220" name="442" type="ReLU" version="opset1">
			<input>
				<port id="0">
					<dim>1</dim>
					<dim>512</dim>
					<dim>12</dim>
					<dim>12</dim>
				</port>
			</input>
			<output>
				<port id="1" precision="FP32">
					<dim>1</dim>
					<dim>512</dim>
					<dim>12</dim>
					<dim>12</dim>
				</port>
			</output>
		</layer>
		<layer id="221" name="444/mean/Fused_Mul_95299531_const" type="Const" version="opset1">
			<data element_type="f32" offset="31402456" shape="512,512,3,3" size="9437184"/>
			<output>
				<port id="1" precision="FP32">
					<dim>512</dim>
					<dim>512</dim>
					<dim>3</dim>
					<dim>3</dim>
				</port>
			</output>
		</layer>
		<layer id="222" name="443" type="Convolution" version="opset1">
			<data dilations="1,1" output_padding="0,0" pads_begin="1,1" pads_end="1,1" strides="1,1"/>
			<input>
				<port id="0">
					<dim>1</dim>
					<dim>512</dim>
					<dim>12</dim>
					<dim>12</dim>
				</port>
				<port id="1">
					<dim>512</dim>
					<dim>512</dim>
					<dim>3</dim>
					<dim>3</dim>
				</port>
			</input>
			<output>
				<port id="2" precision="FP32">
					<dim>1</dim>
					<dim>512</dim>
					<dim>12</dim>
					<dim>12</dim>
				</port>
			</output>
		</layer>
		<layer id="223" name="data_add_853985448772/EltwiseUnsqueeze9128_const" type="Const" version="opset1">
			<data element_type="f32" offset="40839640" shape="1,512,1,1" size="2048"/>
			<output>
				<port id="1" precision="FP32">
					<dim>1</dim>
					<dim>512</dim>
					<dim>1</dim>
					<dim>1</dim>
				</port>
			</output>
		</layer>
		<layer id="224" name="444/variance/Fused_Add_" type="Add" version="opset1">
			<input>
				<port id="0">
					<dim>1</dim>
					<dim>512</dim>
					<dim>12</dim>
					<dim>12</dim>
				</port>
				<port id="1">
					<dim>1</dim>
					<dim>512</dim>
					<dim>1</dim>
					<dim>1</dim>
				</port>
			</input>
			<output>
				<port id="2" precision="FP32">
					<dim>1</dim>
					<dim>512</dim>
					<dim>12</dim>
					<dim>12</dim>
				</port>
			</output>
		</layer>
		<layer id="225" name="437" type="MaxPool" version="opset1">
			<data kernel="2,2" pads_begin="0,0" pads_end="0,0" rounding_type="floor" strides="2,2"/>
			<input>
				<port id="0">
					<dim>1</dim>
					<dim>256</dim>
					<dim>24</dim>
					<dim>24</dim>
				</port>
			</input>
			<output>
				<port id="1" precision="FP32">
					<dim>1</dim>
					<dim>256</dim>
					<dim>12</dim>
					<dim>12</dim>
				</port>
			</output>
		</layer>
		<layer id="226" name="439/mean/Fused_Mul_95339535_const" type="Const" version="opset1">
			<data element_type="f32" offset="40841688" shape="512,256,1,1" size="524288"/>
			<output>
				<port id="1" precision="FP32">
					<dim>512</dim>
					<dim>256</dim>
					<dim>1</dim>
					<dim>1</dim>
				</port>
			</output>
		</layer>
		<layer id="227" name="438" type="Convolution" version="opset1">
			<data dilations="1,1" output_padding="0,0" pads_begin="0,0" pads_end="0,0" strides="1,1"/>
			<input>
				<port id="0">
					<dim>1</dim>
					<dim>256</dim>
					<dim>12</dim>
					<dim>12</dim>
				</port>
				<port id="1">
					<dim>512</dim>
					<dim>256</dim>
					<dim>1</dim>
					<dim>1</dim>
				</port>
			</input>
			<output>
				<port id="2" precision="FP32">
					<dim>1</dim>
					<dim>512</dim>
					<dim>12</dim>
					<dim>12</dim>
				</port>
			</output>
		</layer>
		<layer id="228" name="data_add_854785528774/EltwiseUnsqueeze9136_const" type="Const" version="opset1">
			<data element_type="f32" offset="41365976" shape="1,512,1,1" size="2048"/>
			<output>
				<port id="1" precision="FP32">
					<dim>1</dim>
					<dim>512</dim>
					<dim>1</dim>
					<dim>1</dim>
				</port>
			</output>
		</layer>
		<layer id="229" name="439/variance/Fused_Add_" type="Add" version="opset1">
			<input>
				<port id="0">
					<dim>1</dim>
					<dim>512</dim>
					<dim>12</dim>
					<dim>12</dim>
				</port>
				<port id="1">
					<dim>1</dim>
					<dim>512</dim>
					<dim>1</dim>
					<dim>1</dim>
				</port>
			</input>
			<output>
				<port id="2" precision="FP32">
					<dim>1</dim>
					<dim>512</dim>
					<dim>12</dim>
					<dim>12</dim>
				</port>
			</output>
		</layer>
		<layer id="230" name="445" type="Add" version="opset1">
			<input>
				<port id="0">
					<dim>1</dim>
					<dim>512</dim>
					<dim>12</dim>
					<dim>12</dim>
				</port>
				<port id="1">
					<dim>1</dim>
					<dim>512</dim>
					<dim>12</dim>
					<dim>12</dim>
				</port>
			</input>
			<output>
				<port id="2" precision="FP32">
					<dim>1</dim>
					<dim>512</dim>
					<dim>12</dim>
					<dim>12</dim>
				</port>
			</output>
		</layer>
		<layer id="231" name="446" type="ReLU" version="opset1">
			<input>
				<port id="0">
					<dim>1</dim>
					<dim>512</dim>
					<dim>12</dim>
					<dim>12</dim>
				</port>
			</input>
			<output>
				<port id="1" precision="FP32">
					<dim>1</dim>
					<dim>512</dim>
					<dim>12</dim>
					<dim>12</dim>
				</port>
			</output>
		</layer>
		<layer id="232" name="448/mean/Fused_Mul_95379539_const" type="Const" version="opset1">
			<data element_type="f32" offset="41368024" shape="512,512,3,3" size="9437184"/>
			<output>
				<port id="1" precision="FP32">
					<dim>512</dim>
					<dim>512</dim>
					<dim>3</dim>
					<dim>3</dim>
				</port>
			</output>
		</layer>
		<layer id="233" name="447" type="Convolution" version="opset1">
			<data dilations="1,1" output_padding="0,0" pads_begin="1,1" pads_end="1,1" strides="1,1"/>
			<input>
				<port id="0">
					<dim>1</dim>
					<dim>512</dim>
					<dim>12</dim>
					<dim>12</dim>
				</port>
				<port id="1">
					<dim>512</dim>
					<dim>512</dim>
					<dim>3</dim>
					<dim>3</dim>
				</port>
			</input>
			<output>
				<port id="2" precision="FP32">
					<dim>1</dim>
					<dim>512</dim>
					<dim>12</dim>
					<dim>12</dim>
				</port>
			</output>
		</layer>
		<layer id="234" name="data_add_855585608776/EltwiseUnsqueeze9144_const" type="Const" version="opset1">
			<data element_type="f32" offset="50805208" shape="1,512,1,1" size="2048"/>
			<output>
				<port id="1" precision="FP32">
					<dim>1</dim>
					<dim>512</dim>
					<dim>1</dim>
					<dim>1</dim>
				</port>
			</output>
		</layer>
		<layer id="235" name="448/variance/Fused_Add_" type="Add" version="opset1">
			<input>
				<port id="0">
					<dim>1</dim>
					<dim>512</dim>
					<dim>12</dim>
					<dim>12</dim>
				</port>
				<port id="1">
					<dim>1</dim>
					<dim>512</dim>
					<dim>1</dim>
					<dim>1</dim>
				</port>
			</input>
			<output>
				<port id="2" precision="FP32">
					<dim>1</dim>
					<dim>512</dim>
					<dim>12</dim>
					<dim>12</dim>
				</port>
			</output>
		</layer>
		<layer id="236" name="449" type="ReLU" version="opset1">
			<input>
				<port id="0">
					<dim>1</dim>
					<dim>512</dim>
					<dim>12</dim>
					<dim>12</dim>
				</port>
			</input>
			<output>
				<port id="1" precision="FP32">
					<dim>1</dim>
					<dim>512</dim>
					<dim>12</dim>
					<dim>12</dim>
				</port>
			</output>
		</layer>
		<layer id="237" name="451/mean/Fused_Mul_95419543_const" type="Const" version="opset1">
			<data element_type="f32" offset="50807256" shape="512,512,3,3" size="9437184"/>
			<output>
				<port id="1" precision="FP32">
					<dim>512</dim>
					<dim>512</dim>
					<dim>3</dim>
					<dim>3</dim>
				</port>
			</output>
		</layer>
		<layer id="238" name="450" type="Convolution" version="opset1">
			<data dilations="1,1" output_padding="0,0" pads_begin="1,1" pads_end="1,1" strides="1,1"/>
			<input>
				<port id="0">
					<dim>1</dim>
					<dim>512</dim>
					<dim>12</dim>
					<dim>12</dim>
				</port>
				<port id="1">
					<dim>512</dim>
					<dim>512</dim>
					<dim>3</dim>
					<dim>3</dim>
				</port>
			</input>
			<output>
				<port id="2" precision="FP32">
					<dim>1</dim>
					<dim>512</dim>
					<dim>12</dim>
					<dim>12</dim>
				</port>
			</output>
		</layer>
		<layer id="239" name="data_add_856385688778/EltwiseUnsqueeze9152_const" type="Const" version="opset1">
			<data element_type="f32" offset="60244440" shape="1,512,1,1" size="2048"/>
			<output>
				<port id="1" precision="FP32">
					<dim>1</dim>
					<dim>512</dim>
					<dim>1</dim>
					<dim>1</dim>
				</port>
			</output>
		</layer>
		<layer id="240" name="451/variance/Fused_Add_" type="Add" version="opset1">
			<input>
				<port id="0">
					<dim>1</dim>
					<dim>512</dim>
					<dim>12</dim>
					<dim>12</dim>
				</port>
				<port id="1">
					<dim>1</dim>
					<dim>512</dim>
					<dim>1</dim>
					<dim>1</dim>
				</port>
			</input>
			<output>
				<port id="2" precision="FP32">
					<dim>1</dim>
					<dim>512</dim>
					<dim>12</dim>
					<dim>12</dim>
				</port>
			</output>
		</layer>
		<layer id="241" name="452" type="Add" version="opset1">
			<input>
				<port id="0">
					<dim>1</dim>
					<dim>512</dim>
					<dim>12</dim>
					<dim>12</dim>
				</port>
				<port id="1">
					<dim>1</dim>
					<dim>512</dim>
					<dim>12</dim>
					<dim>12</dim>
				</port>
			</input>
			<output>
				<port id="2" precision="FP32">
					<dim>1</dim>
					<dim>512</dim>
					<dim>12</dim>
					<dim>12</dim>
				</port>
			</output>
		</layer>
		<layer id="242" name="453" type="ReLU" version="opset1">
			<input>
				<port id="0">
					<dim>1</dim>
					<dim>512</dim>
					<dim>12</dim>
					<dim>12</dim>
				</port>
			</input>
			<output>
				<port id="1" precision="FP32">
					<dim>1</dim>
					<dim>512</dim>
					<dim>12</dim>
					<dim>12</dim>
				</port>
			</output>
		</layer>
		<layer id="243" name="454" type="Concat" version="opset1">
			<data axis="1"/>
			<input>
				<port id="0">
					<dim>1</dim>
					<dim>512</dim>
					<dim>12</dim>
					<dim>12</dim>
				</port>
				<port id="1">
					<dim>1</dim>
					<dim>512</dim>
					<dim>12</dim>
					<dim>12</dim>
				</port>
				<port id="2">
					<dim>1</dim>
					<dim>256</dim>
					<dim>12</dim>
					<dim>12</dim>
				</port>
			</input>
			<output>
				<port id="3" precision="FP32">
					<dim>1</dim>
					<dim>1280</dim>
					<dim>12</dim>
					<dim>12</dim>
				</port>
			</output>
		</layer>
		<layer id="244" name="456/mean/Fused_Mul_95459547_const" type="Const" version="opset1">
			<data element_type="f32" offset="60246488" shape="512,1280,1,1" size="2621440"/>
			<output>
				<port id="1" precision="FP32">
					<dim>512</dim>
					<dim>1280</dim>
					<dim>1</dim>
					<dim>1</dim>
				</port>
			</output>
		</layer>
		<layer id="245" name="455" type="Convolution" version="opset1">
			<data dilations="1,1" output_padding="0,0" pads_begin="0,0" pads_end="0,0" strides="1,1"/>
			<input>
				<port id="0">
					<dim>1</dim>
					<dim>1280</dim>
					<dim>12</dim>
					<dim>12</dim>
				</port>
				<port id="1">
					<dim>512</dim>
					<dim>1280</dim>
					<dim>1</dim>
					<dim>1</dim>
				</port>
			</input>
			<output>
				<port id="2" precision="FP32">
					<dim>1</dim>
					<dim>512</dim>
					<dim>12</dim>
					<dim>12</dim>
				</port>
			</output>
		</layer>
		<layer id="246" name="data_add_857185768780/EltwiseUnsqueeze9160_const" type="Const" version="opset1">
			<data element_type="f32" offset="62867928" shape="1,512,1,1" size="2048"/>
			<output>
				<port id="1" precision="FP32">
					<dim>1</dim>
					<dim>512</dim>
					<dim>1</dim>
					<dim>1</dim>
				</port>
			</output>
		</layer>
		<layer id="247" name="456/variance/Fused_Add_" type="Add" version="opset1">
			<input>
				<port id="0">
					<dim>1</dim>
					<dim>512</dim>
					<dim>12</dim>
					<dim>12</dim>
				</port>
				<port id="1">
					<dim>1</dim>
					<dim>512</dim>
					<dim>1</dim>
					<dim>1</dim>
				</port>
			</input>
			<output>
				<port id="2" precision="FP32">
					<dim>1</dim>
					<dim>512</dim>
					<dim>12</dim>
					<dim>12</dim>
				</port>
			</output>
		</layer>
		<layer id="248" name="457" type="ReLU" version="opset1">
			<input>
				<port id="0">
					<dim>1</dim>
					<dim>512</dim>
					<dim>12</dim>
					<dim>12</dim>
				</port>
			</input>
			<output>
				<port id="1" precision="FP32">
					<dim>1</dim>
					<dim>512</dim>
					<dim>12</dim>
					<dim>12</dim>
				</port>
			</output>
		</layer>
		<layer id="249" name="459/mean/Fused_Mul_95499551_const" type="Const" version="opset1">
			<data element_type="f32" offset="62869976" shape="256,512,1,1" size="524288"/>
			<output>
				<port id="1" precision="FP32">
					<dim>256</dim>
					<dim>512</dim>
					<dim>1</dim>
					<dim>1</dim>
				</port>
			</output>
		</layer>
		<layer id="250" name="458" type="Convolution" version="opset1">
			<data dilations="1,1" output_padding="0,0" pads_begin="0,0" pads_end="0,0" strides="1,1"/>
			<input>
				<port id="0">
					<dim>1</dim>
					<dim>512</dim>
					<dim>12</dim>
					<dim>12</dim>
				</port>
				<port id="1">
					<dim>256</dim>
					<dim>512</dim>
					<dim>1</dim>
					<dim>1</dim>
				</port>
			</input>
			<output>
				<port id="2" precision="FP32">
					<dim>1</dim>
					<dim>256</dim>
					<dim>12</dim>
					<dim>12</dim>
				</port>
			</output>
		</layer>
		<layer id="251" name="data_add_857985848782/EltwiseUnsqueeze9168_const" type="Const" version="opset1">
			<data element_type="f32" offset="63394264" shape="1,256,1,1" size="1024"/>
			<output>
				<port id="1" precision="FP32">
					<dim>1</dim>
					<dim>256</dim>
					<dim>1</dim>
					<dim>1</dim>
				</port>
			</output>
		</layer>
		<layer id="252" name="459/variance/Fused_Add_" type="Add" version="opset1">
			<input>
				<port id="0">
					<dim>1</dim>
					<dim>256</dim>
					<dim>12</dim>
					<dim>12</dim>
				</port>
				<port id="1">
					<dim>1</dim>
					<dim>256</dim>
					<dim>1</dim>
					<dim>1</dim>
				</port>
			</input>
			<output>
				<port id="2" precision="FP32">
					<dim>1</dim>
					<dim>256</dim>
					<dim>12</dim>
					<dim>12</dim>
				</port>
			</output>
		</layer>
		<layer id="253" name="460" type="ReLU" version="opset1">
			<input>
				<port id="0">
					<dim>1</dim>
					<dim>256</dim>
					<dim>12</dim>
					<dim>12</dim>
				</port>
			</input>
			<output>
				<port id="1" precision="FP32">
					<dim>1</dim>
					<dim>256</dim>
					<dim>12</dim>
					<dim>12</dim>
				</port>
			</output>
		</layer>
		<layer id="254" name="1371013713_const" type="Const" version="opset1">
			<data element_type="f32" offset="63395288" shape="256,1,1,4,4" size="16384"/>
			<output>
				<port id="1" precision="FP32">
					<dim>256</dim>
					<dim>1</dim>
					<dim>1</dim>
					<dim>4</dim>
					<dim>4</dim>
				</port>
			</output>
		</layer>
		<layer id="255" name="461" type="GroupConvolutionBackpropData" version="opset1">
			<data dilations="1,1" output_padding="0,0" pads_begin="1,1" pads_end="1,1" strides="2,2"/>
			<input>
				<port id="0">
					<dim>1</dim>
					<dim>256</dim>
					<dim>12</dim>
					<dim>12</dim>
				</port>
				<port id="1">
					<dim>256</dim>
					<dim>1</dim>
					<dim>1</dim>
					<dim>4</dim>
					<dim>4</dim>
				</port>
			</input>
			<output>
				<port id="2" precision="FP32">
					<dim>1</dim>
					<dim>256</dim>
					<dim>24</dim>
					<dim>24</dim>
				</port>
			</output>
		</layer>
		<layer id="256" name="462" type="Concat" version="opset1">
			<data axis="1"/>
			<input>
				<port id="0">
					<dim>1</dim>
					<dim>256</dim>
					<dim>24</dim>
					<dim>24</dim>
				</port>
				<port id="1">
					<dim>1</dim>
					<dim>256</dim>
					<dim>24</dim>
					<dim>24</dim>
				</port>
			</input>
			<output>
				<port id="2" precision="FP32">
					<dim>1</dim>
					<dim>512</dim>
					<dim>24</dim>
					<dim>24</dim>
				</port>
			</output>
		</layer>
		<layer id="257" name="464/mean/Fused_Mul_95539555_const" type="Const" version="opset1">
			<data element_type="f32" offset="63411672" shape="256,512,3,3" size="4718592"/>
			<output>
				<port id="1" precision="FP32">
					<dim>256</dim>
					<dim>512</dim>
					<dim>3</dim>
					<dim>3</dim>
				</port>
			</output>
		</layer>
		<layer id="258" name="463" type="Convolution" version="opset1">
			<data dilations="1,1" output_padding="0,0" pads_begin="1,1" pads_end="1,1" strides="1,1"/>
			<input>
				<port id="0">
					<dim>1</dim>
					<dim>512</dim>
					<dim>24</dim>
					<dim>24</dim>
				</port>
				<port id="1">
					<dim>256</dim>
					<dim>512</dim>
					<dim>3</dim>
					<dim>3</dim>
				</port>
			</input>
			<output>
				<port id="2" precision="FP32">
					<dim>1</dim>
					<dim>256</dim>
					<dim>24</dim>
					<dim>24</dim>
				</port>
			</output>
		</layer>
		<layer id="259" name="data_add_858785928784/EltwiseUnsqueeze9176_const" type="Const" version="opset1">
			<data element_type="f32" offset="68130264" shape="1,256,1,1" size="1024"/>
			<output>
				<port id="1" precision="FP32">
					<dim>1</dim>
					<dim>256</dim>
					<dim>1</dim>
					<dim>1</dim>
				</port>
			</output>
		</layer>
		<layer id="260" name="464/variance/Fused_Add_" type="Add" version="opset1">
			<input>
				<port id="0">
					<dim>1</dim>
					<dim>256</dim>
					<dim>24</dim>
					<dim>24</dim>
				</port>
				<port id="1">
					<dim>1</dim>
					<dim>256</dim>
					<dim>1</dim>
					<dim>1</dim>
				</port>
			</input>
			<output>
				<port id="2" precision="FP32">
					<dim>1</dim>
					<dim>256</dim>
					<dim>24</dim>
					<dim>24</dim>
				</port>
			</output>
		</layer>
		<layer id="261" name="465" type="ReLU" version="opset1">
			<input>
				<port id="0">
					<dim>1</dim>
					<dim>256</dim>
					<dim>24</dim>
					<dim>24</dim>
				</port>
			</input>
			<output>
				<port id="1" precision="FP32">
					<dim>1</dim>
					<dim>256</dim>
					<dim>24</dim>
					<dim>24</dim>
				</port>
			</output>
		</layer>
		<layer id="262" name="471/mean/Fused_Mul_95579559_const" type="Const" version="opset1">
			<data element_type="f32" offset="68131288" shape="128,256,1,1" size="131072"/>
			<output>
				<port id="1" precision="FP32">
					<dim>128</dim>
					<dim>256</dim>
					<dim>1</dim>
					<dim>1</dim>
				</port>
			</output>
		</layer>
		<layer id="263" name="470" type="Convolution" version="opset1">
			<data dilations="1,1" output_padding="0,0" pads_begin="0,0" pads_end="0,0" strides="1,1"/>
			<input>
				<port id="0">
					<dim>1</dim>
					<dim>256</dim>
					<dim>24</dim>
					<dim>24</dim>
				</port>
				<port id="1">
					<dim>128</dim>
					<dim>256</dim>
					<dim>1</dim>
					<dim>1</dim>
				</port>
			</input>
			<output>
				<port id="2" precision="FP32">
					<dim>1</dim>
					<dim>128</dim>
					<dim>24</dim>
					<dim>24</dim>
				</port>
			</output>
		</layer>
		<layer id="264" name="data_add_859586008786/EltwiseUnsqueeze9184_const" type="Const" version="opset1">
			<data element_type="f32" offset="68262360" shape="1,128,1,1" size="512"/>
			<output>
				<port id="1" precision="FP32">
					<dim>1</dim>
					<dim>128</dim>
					<dim>1</dim>
					<dim>1</dim>
				</port>
			</output>
		</layer>
		<layer id="265" name="471/variance/Fused_Add_" type="Add" version="opset1">
			<input>
				<port id="0">
					<dim>1</dim>
					<dim>128</dim>
					<dim>24</dim>
					<dim>24</dim>
				</port>
				<port id="1">
					<dim>1</dim>
					<dim>128</dim>
					<dim>1</dim>
					<dim>1</dim>
				</port>
			</input>
			<output>
				<port id="2" precision="FP32">
					<dim>1</dim>
					<dim>128</dim>
					<dim>24</dim>
					<dim>24</dim>
				</port>
			</output>
		</layer>
		<layer id="266" name="472" type="ReLU" version="opset1">
			<input>
				<port id="0">
					<dim>1</dim>
					<dim>128</dim>
					<dim>24</dim>
					<dim>24</dim>
				</port>
			</input>
			<output>
				<port id="1" precision="FP32">
					<dim>1</dim>
					<dim>128</dim>
					<dim>24</dim>
					<dim>24</dim>
				</port>
			</output>
		</layer>
		<layer id="267" name="1372213725_const" type="Const" version="opset1">
			<data element_type="f32" offset="68262872" shape="128,1,1,4,4" size="8192"/>
			<output>
				<port id="1" precision="FP32">
					<dim>128</dim>
					<dim>1</dim>
					<dim>1</dim>
					<dim>4</dim>
					<dim>4</dim>
				</port>
			</output>
		</layer>
		<layer id="268" name="473" type="GroupConvolutionBackpropData" version="opset1">
			<data dilations="1,1" output_padding="0,0" pads_begin="1,1" pads_end="1,1" strides="2,2"/>
			<input>
				<port id="0">
					<dim>1</dim>
					<dim>128</dim>
					<dim>24</dim>
					<dim>24</dim>
				</port>
				<port id="1">
					<dim>128</dim>
					<dim>1</dim>
					<dim>1</dim>
					<dim>4</dim>
					<dim>4</dim>
				</port>
			</input>
			<output>
				<port id="2" precision="FP32">
					<dim>1</dim>
					<dim>128</dim>
					<dim>48</dim>
					<dim>48</dim>
				</port>
			</output>
		</layer>
		<layer id="269" name="478" type="Concat" version="opset1">
			<data axis="1"/>
			<input>
				<port id="0">
					<dim>1</dim>
					<dim>128</dim>
					<dim>48</dim>
					<dim>48</dim>
				</port>
				<port id="1">
					<dim>1</dim>
					<dim>128</dim>
					<dim>48</dim>
					<dim>48</dim>
				</port>
			</input>
			<output>
				<port id="2" precision="FP32">
					<dim>1</dim>
					<dim>256</dim>
					<dim>48</dim>
					<dim>48</dim>
				</port>
			</output>
		</layer>
		<layer id="270" name="480/mean/Fused_Mul_95619563_const" type="Const" version="opset1">
			<data element_type="f32" offset="68271064" shape="128,256,3,3" size="1179648"/>
			<output>
				<port id="1" precision="FP32">
					<dim>128</dim>
					<dim>256</dim>
					<dim>3</dim>
					<dim>3</dim>
				</port>
			</output>
		</layer>
		<layer id="271" name="479" type="Convolution" version="opset1">
			<data dilations="1,1" output_padding="0,0" pads_begin="1,1" pads_end="1,1" strides="1,1"/>
			<input>
				<port id="0">
					<dim>1</dim>
					<dim>256</dim>
					<dim>48</dim>
					<dim>48</dim>
				</port>
				<port id="1">
					<dim>128</dim>
					<dim>256</dim>
					<dim>3</dim>
					<dim>3</dim>
				</port>
			</input>
			<output>
				<port id="2" precision="FP32">
					<dim>1</dim>
					<dim>128</dim>
					<dim>48</dim>
					<dim>48</dim>
				</port>
			</output>
		</layer>
		<layer id="272" name="data_add_860386088788/EltwiseUnsqueeze9192_const" type="Const" version="opset1">
			<data element_type="f32" offset="69450712" shape="1,128,1,1" size="512"/>
			<output>
				<port id="1" precision="FP32">
					<dim>1</dim>
					<dim>128</dim>
					<dim>1</dim>
					<dim>1</dim>
				</port>
			</output>
		</layer>
		<layer id="273" name="480/variance/Fused_Add_" type="Add" version="opset1">
			<input>
				<port id="0">
					<dim>1</dim>
					<dim>128</dim>
					<dim>48</dim>
					<dim>48</dim>
				</port>
				<port id="1">
					<dim>1</dim>
					<dim>128</dim>
					<dim>1</dim>
					<dim>1</dim>
				</port>
			</input>
			<output>
				<port id="2" precision="FP32">
					<dim>1</dim>
					<dim>128</dim>
					<dim>48</dim>
					<dim>48</dim>
				</port>
			</output>
		</layer>
		<layer id="274" name="481" type="ReLU" version="opset1">
			<input>
				<port id="0">
					<dim>1</dim>
					<dim>128</dim>
					<dim>48</dim>
					<dim>48</dim>
				</port>
			</input>
			<output>
				<port id="1" precision="FP32">
					<dim>1</dim>
					<dim>128</dim>
					<dim>48</dim>
					<dim>48</dim>
				</port>
			</output>
		</layer>
		<layer id="275" name="491/mean/Fused_Mul_95659567_const" type="Const" version="opset1">
			<data element_type="f32" offset="69451224" shape="64,128,1,1" size="32768"/>
			<output>
				<port id="1" precision="FP32">
					<dim>64</dim>
					<dim>128</dim>
					<dim>1</dim>
					<dim>1</dim>
				</port>
			</output>
		</layer>
		<layer id="276" name="490" type="Convolution" version="opset1">
			<data dilations="1,1" output_padding="0,0" pads_begin="0,0" pads_end="0,0" strides="1,1"/>
			<input>
				<port id="0">
					<dim>1</dim>
					<dim>128</dim>
					<dim>48</dim>
					<dim>48</dim>
				</port>
				<port id="1">
					<dim>64</dim>
					<dim>128</dim>
					<dim>1</dim>
					<dim>1</dim>
				</port>
			</input>
			<output>
				<port id="2" precision="FP32">
					<dim>1</dim>
					<dim>64</dim>
					<dim>48</dim>
					<dim>48</dim>
				</port>
			</output>
		</layer>
		<layer id="277" name="data_add_861186168790/EltwiseUnsqueeze9200_const" type="Const" version="opset1">
			<data element_type="f32" offset="69483992" shape="1,64,1,1" size="256"/>
			<output>
				<port id="1" precision="FP32">
					<dim>1</dim>
					<dim>64</dim>
					<dim>1</dim>
					<dim>1</dim>
				</port>
			</output>
		</layer>
		<layer id="278" name="491/variance/Fused_Add_" type="Add" version="opset1">
			<input>
				<port id="0">
					<dim>1</dim>
					<dim>64</dim>
					<dim>48</dim>
					<dim>48</dim>
				</port>
				<port id="1">
					<dim>1</dim>
					<dim>64</dim>
					<dim>1</dim>
					<dim>1</dim>
				</port>
			</input>
			<output>
				<port id="2" precision="FP32">
					<dim>1</dim>
					<dim>64</dim>
					<dim>48</dim>
					<dim>48</dim>
				</port>
			</output>
		</layer>
		<layer id="279" name="492" type="ReLU" version="opset1">
			<input>
				<port id="0">
					<dim>1</dim>
					<dim>64</dim>
					<dim>48</dim>
					<dim>48</dim>
				</port>
			</input>
			<output>
				<port id="1" precision="FP32">
					<dim>1</dim>
					<dim>64</dim>
					<dim>48</dim>
					<dim>48</dim>
				</port>
			</output>
		</layer>
		<layer id="280" name="1371813721_const" type="Const" version="opset1">
			<data element_type="f32" offset="69484248" shape="64,1,1,4,4" size="4096"/>
			<output>
				<port id="1" precision="FP32">
					<dim>64</dim>
					<dim>1</dim>
					<dim>1</dim>
					<dim>4</dim>
					<dim>4</dim>
				</port>
			</output>
		</layer>
		<layer id="281" name="493" type="GroupConvolutionBackpropData" version="opset1">
			<data dilations="1,1" output_padding="0,0" pads_begin="1,1" pads_end="1,1" strides="2,2"/>
			<input>
				<port id="0">
					<dim>1</dim>
					<dim>64</dim>
					<dim>48</dim>
					<dim>48</dim>
				</port>
				<port id="1">
					<dim>64</dim>
					<dim>1</dim>
					<dim>1</dim>
					<dim>4</dim>
					<dim>4</dim>
				</port>
			</input>
			<output>
				<port id="2" precision="FP32">
					<dim>1</dim>
					<dim>64</dim>
					<dim>96</dim>
					<dim>96</dim>
				</port>
			</output>
		</layer>
		<layer id="282" name="502" type="Concat" version="opset1">
			<data axis="1"/>
			<input>
				<port id="0">
					<dim>1</dim>
					<dim>64</dim>
					<dim>96</dim>
					<dim>96</dim>
				</port>
				<port id="1">
					<dim>1</dim>
					<dim>64</dim>
					<dim>96</dim>
					<dim>96</dim>
				</port>
			</input>
			<output>
				<port id="2" precision="FP32">
					<dim>1</dim>
					<dim>128</dim>
					<dim>96</dim>
					<dim>96</dim>
				</port>
			</output>
		</layer>
		<layer id="283" name="504/mean/Fused_Mul_95699571_const" type="Const" version="opset1">
			<data element_type="f32" offset="69488344" shape="64,128,3,3" size="294912"/>
			<output>
				<port id="1" precision="FP32">
					<dim>64</dim>
					<dim>128</dim>
					<dim>3</dim>
					<dim>3</dim>
				</port>
			</output>
		</layer>
		<layer id="284" name="503" type="Convolution" version="opset1">
			<data dilations="1,1" output_padding="0,0" pads_begin="1,1" pads_end="1,1" strides="1,1"/>
			<input>
				<port id="0">
					<dim>1</dim>
					<dim>128</dim>
					<dim>96</dim>
					<dim>96</dim>
				</port>
				<port id="1">
					<dim>64</dim>
					<dim>128</dim>
					<dim>3</dim>
					<dim>3</dim>
				</port>
			</input>
			<output>
				<port id="2" precision="FP32">
					<dim>1</dim>
					<dim>64</dim>
					<dim>96</dim>
					<dim>96</dim>
				</port>
			</output>
		</layer>
		<layer id="285" name="data_add_861986248792/EltwiseUnsqueeze9208_const" type="Const" version="opset1">
			<data element_type="f32" offset="69783256" shape="1,64,1,1" size="256"/>
			<output>
				<port id="1" precision="FP32">
					<dim>1</dim>
					<dim>64</dim>
					<dim>1</dim>
					<dim>1</dim>
				</port>
			</output>
		</layer>
		<layer id="286" name="504/variance/Fused_Add_" type="Add" version="opset1">
			<input>
				<port id="0">
					<dim>1</dim>
					<dim>64</dim>
					<dim>96</dim>
					<dim>96</dim>
				</port>
				<port id="1">
					<dim>1</dim>
					<dim>64</dim>
					<dim>1</dim>
					<dim>1</dim>
				</port>
			</input>
			<output>
				<port id="2" precision="FP32">
					<dim>1</dim>
					<dim>64</dim>
					<dim>96</dim>
					<dim>96</dim>
				</port>
			</output>
		</layer>
		<layer id="287" name="505" type="ReLU" version="opset1">
			<input>
				<port id="0">
					<dim>1</dim>
					<dim>64</dim>
					<dim>96</dim>
					<dim>96</dim>
				</port>
			</input>
			<output>
				<port id="1" precision="FP32">
					<dim>1</dim>
					<dim>64</dim>
					<dim>96</dim>
					<dim>96</dim>
				</port>
			</output>
		</layer>
		<layer id="288" name="hm.0.weight/Output_0/Data__const" type="Const" version="opset1">
			<data element_type="f32" offset="69783512" shape="256,64,3,3" size="589824"/>
			<output>
				<port id="1" precision="FP32">
					<dim>256</dim>
					<dim>64</dim>
					<dim>3</dim>
					<dim>3</dim>
				</port>
			</output>
		</layer>
		<layer id="289" name="506/WithoutBiases" type="Convolution" version="opset1">
			<data dilations="1,1" output_padding="0,0" pads_begin="1,1" pads_end="1,1" strides="1,1"/>
			<input>
				<port id="0">
					<dim>1</dim>
					<dim>64</dim>
					<dim>96</dim>
					<dim>96</dim>
				</port>
				<port id="1">
					<dim>256</dim>
					<dim>64</dim>
					<dim>3</dim>
					<dim>3</dim>
				</port>
			</input>
			<output>
				<port id="2" precision="FP32">
					<dim>1</dim>
					<dim>256</dim>
					<dim>96</dim>
					<dim>96</dim>
				</port>
			</output>
		</layer>
		<layer id="290" name="506/Dims46928687/EltwiseUnsqueeze8796_const" type="Const" version="opset1">
			<data element_type="f32" offset="70373336" shape="1,256,1,1" size="1024"/>
			<output>
				<port id="1" precision="FP32">
					<dim>1</dim>
					<dim>256</dim>
					<dim>1</dim>
					<dim>1</dim>
				</port>
			</output>
		</layer>
		<layer id="291" name="506" type="Add" version="opset1">
			<input>
				<port id="0">
					<dim>1</dim>
					<dim>256</dim>
					<dim>96</dim>
					<dim>96</dim>
				</port>
				<port id="1">
					<dim>1</dim>
					<dim>256</dim>
					<dim>1</dim>
					<dim>1</dim>
				</port>
			</input>
			<output>
				<port id="2" precision="FP32">
					<dim>1</dim>
					<dim>256</dim>
					<dim>96</dim>
					<dim>96</dim>
				</port>
			</output>
		</layer>
		<layer id="292" name="507" type="ReLU" version="opset1">
			<input>
				<port id="0">
					<dim>1</dim>
					<dim>256</dim>
					<dim>96</dim>
					<dim>96</dim>
				</port>
			</input>
			<output>
				<port id="1" precision="FP32">
					<dim>1</dim>
					<dim>256</dim>
					<dim>96</dim>
					<dim>96</dim>
				</port>
			</output>
		</layer>
		<layer id="293" name="hm.2.weight/Output_0/Data__const" type="Const" version="opset1">
			<data element_type="f32" offset="70374360" shape="80,256,1,1" size="81920"/>
			<output>
				<port id="1" precision="FP32">
					<dim>80</dim>
					<dim>256</dim>
					<dim>1</dim>
					<dim>1</dim>
				</port>
			</output>
		</layer>
		<layer id="294" name="center_heatmap512/WithoutBiases" type="Convolution" version="opset1">
			<data dilations="1,1" output_padding="0,0" pads_begin="0,0" pads_end="0,0" strides="1,1"/>
			<input>
				<port id="0">
					<dim>1</dim>
					<dim>256</dim>
					<dim>96</dim>
					<dim>96</dim>
				</port>
				<port id="1">
					<dim>80</dim>
					<dim>256</dim>
					<dim>1</dim>
					<dim>1</dim>
				</port>
			</input>
			<output>
				<port id="2" precision="FP32">
					<dim>1</dim>
					<dim>80</dim>
					<dim>96</dim>
					<dim>96</dim>
				</port>
			</output>
		</layer>
		<layer id="295" name="center_heatmap512/Dims47168691/EltwiseUnsqueeze8812_const" type="Const" version="opset1">
			<data element_type="f32" offset="70456280" shape="1,80,1,1" size="320"/>
			<output>
				<port id="1" precision="FP32">
					<dim>1</dim>
					<dim>80</dim>
					<dim>1</dim>
					<dim>1</dim>
				</port>
			</output>
		</layer>
		<layer id="296" name="center_heatmap" type="Add" version="opset1">
			<input>
				<port id="0">
					<dim>1</dim>
					<dim>80</dim>
					<dim>96</dim>
					<dim>96</dim>
				</port>
				<port id="1">
					<dim>1</dim>
					<dim>80</dim>
					<dim>1</dim>
					<dim>1</dim>
				</port>
			</input>
			<output>
				<port id="2" precision="FP32">
					<dim>1</dim>
					<dim>80</dim>
					<dim>96</dim>
					<dim>96</dim>
				</port>
			</output>
		</layer>
		<layer id="297" name="center_heatmap/sink_port_0" type="Result" version="opset1">
			<input>
				<port id="0">
					<dim>1</dim>
					<dim>80</dim>
					<dim>96</dim>
					<dim>96</dim>
				</port>
			</input>
		</layer>
		<layer id="298" name="reg.0.weight/Output_0/Data__const" type="Const" version="opset1">
			<data element_type="f32" offset="70456600" shape="256,64,3,3" size="589824"/>
			<output>
				<port id="1" precision="FP32">
					<dim>256</dim>
					<dim>64</dim>
					<dim>3</dim>
					<dim>3</dim>
				</port>
			</output>
		</layer>
		<layer id="299" name="512/WithoutBiases" type="Convolution" version="opset1">
			<data dilations="1,1" output_padding="0,0" pads_begin="1,1" pads_end="1,1" strides="1,1"/>
			<input>
				<port id="0">
					<dim>1</dim>
					<dim>64</dim>
					<dim>96</dim>
					<dim>96</dim>
				</port>
				<port id="1">
					<dim>256</dim>
					<dim>64</dim>
					<dim>3</dim>
					<dim>3</dim>
				</port>
			</input>
			<output>
				<port id="2" precision="FP32">
					<dim>1</dim>
					<dim>256</dim>
					<dim>96</dim>
					<dim>96</dim>
				</port>
			</output>
		</layer>
		<layer id="300" name="512/Dims47228692/EltwiseUnsqueeze8816_const" type="Const" version="opset1">
			<data element_type="f32" offset="71046424" shape="1,256,1,1" size="1024"/>
			<output>
				<port id="1" precision="FP32">
					<dim>1</dim>
					<dim>256</dim>
					<dim>1</dim>
					<dim>1</dim>
				</port>
			</output>
		</layer>
		<layer id="301" name="512" type="Add" version="opset1">
			<input>
				<port id="0">
					<dim>1</dim>
					<dim>256</dim>
					<dim>96</dim>
					<dim>96</dim>
				</port>
				<port id="1">
					<dim>1</dim>
					<dim>256</dim>
					<dim>1</dim>
					<dim>1</dim>
				</port>
			</input>
			<output>
				<port id="2" precision="FP32">
					<dim>1</dim>
					<dim>256</dim>
					<dim>96</dim>
					<dim>96</dim>
				</port>
			</output>
		</layer>
		<layer id="302" name="513" type="ReLU" version="opset1">
			<input>
				<port id="0">
					<dim>1</dim>
					<dim>256</dim>
					<dim>96</dim>
					<dim>96</dim>
				</port>
			</input>
			<output>
				<port id="1" precision="FP32">
					<dim>1</dim>
					<dim>256</dim>
					<dim>96</dim>
					<dim>96</dim>
				</port>
			</output>
		</layer>
		<layer id="303" name="reg.2.weight/Output_0/Data__const" type="Const" version="opset1">
			<data element_type="f32" offset="71047448" shape="2,256,1,1" size="2048"/>
			<output>
				<port id="1" precision="FP32">
					<dim>2</dim>
					<dim>256</dim>
					<dim>1</dim>
					<dim>1</dim>
				</port>
			</output>
		</layer>
		<layer id="304" name="regression518/WithoutBiases" type="Convolution" version="opset1">
			<data dilations="1,1" output_padding="0,0" pads_begin="0,0" pads_end="0,0" strides="1,1"/>
			<input>
				<port id="0">
					<dim>1</dim>
					<dim>256</dim>
					<dim>96</dim>
					<dim>96</dim>
				</port>
				<port id="1">
					<dim>2</dim>
					<dim>256</dim>
					<dim>1</dim>
					<dim>1</dim>
				</port>
			</input>
			<output>
				<port id="2" precision="FP32">
					<dim>1</dim>
					<dim>2</dim>
					<dim>96</dim>
					<dim>96</dim>
				</port>
			</output>
		</layer>
		<layer id="305" name="regression518/Dims46988688/EltwiseUnsqueeze8800_const" type="Const" version="opset1">
			<data element_type="f32" offset="71049496" shape="1,2,1,1" size="8"/>
			<output>
				<port id="1" precision="FP32">
					<dim>1</dim>
					<dim>2</dim>
					<dim>1</dim>
					<dim>1</dim>
				</port>
			</output>
		</layer>
		<layer id="306" name="regression" type="Add" version="opset1">
			<input>
				<port id="0">
					<dim>1</dim>
					<dim>2</dim>
					<dim>96</dim>
					<dim>96</dim>
				</port>
				<port id="1">
					<dim>1</dim>
					<dim>2</dim>
					<dim>1</dim>
					<dim>1</dim>
				</port>
			</input>
			<output>
				<port id="2" precision="FP32">
					<dim>1</dim>
					<dim>2</dim>
					<dim>96</dim>
					<dim>96</dim>
				</port>
			</output>
		</layer>
		<layer id="307" name="regression/sink_port_0" type="Result" version="opset1">
			<input>
				<port id="0">
					<dim>1</dim>
					<dim>2</dim>
					<dim>96</dim>
					<dim>96</dim>
				</port>
			</input>
		</layer>
		<layer id="308" name="wh.0.weight/Output_0/Data__const" type="Const" version="opset1">
			<data element_type="f32" offset="71049504" shape="256,64,3,3" size="589824"/>
			<output>
				<port id="1" precision="FP32">
					<dim>256</dim>
					<dim>64</dim>
					<dim>3</dim>
					<dim>3</dim>
				</port>
			</output>
		</layer>
		<layer id="309" name="509/WithoutBiases" type="Convolution" version="opset1">
			<data dilations="1,1" output_padding="0,0" pads_begin="1,1" pads_end="1,1" strides="1,1"/>
			<input>
				<port id="0">
					<dim>1</dim>
					<dim>64</dim>
					<dim>96</dim>
					<dim>96</dim>
				</port>
				<port id="1">
					<dim>256</dim>
					<dim>64</dim>
					<dim>3</dim>
					<dim>3</dim>
				</port>
			</input>
			<output>
				<port id="2" precision="FP32">
					<dim>1</dim>
					<dim>256</dim>
					<dim>96</dim>
					<dim>96</dim>
				</port>
			</output>
		</layer>
		<layer id="310" name="509/Dims47108690/EltwiseUnsqueeze8808_const" type="Const" version="opset1">
			<data element_type="f32" offset="71639328" shape="1,256,1,1" size="1024"/>
			<output>
				<port id="1" precision="FP32">
					<dim>1</dim>
					<dim>256</dim>
					<dim>1</dim>
					<dim>1</dim>
				</port>
			</output>
		</layer>
		<layer id="311" name="509" type="Add" version="opset1">
			<input>
				<port id="0">
					<dim>1</dim>
					<dim>256</dim>
					<dim>96</dim>
					<dim>96</dim>
				</port>
				<port id="1">
					<dim>1</dim>
					<dim>256</dim>
					<dim>1</dim>
					<dim>1</dim>
				</port>
			</input>
			<output>
				<port id="2" precision="FP32">
					<dim>1</dim>
					<dim>256</dim>
					<dim>96</dim>
					<dim>96</dim>
				</port>
			</output>
		</layer>
		<layer id="312" name="510" type="ReLU" version="opset1">
			<input>
				<port id="0">
					<dim>1</dim>
					<dim>256</dim>
					<dim>96</dim>
					<dim>96</dim>
				</port>
			</input>
			<output>
				<port id="1" precision="FP32">
					<dim>1</dim>
					<dim>256</dim>
					<dim>96</dim>
					<dim>96</dim>
				</port>
			</output>
		</layer>
		<layer id="313" name="wh.2.weight/Output_0/Data__const" type="Const" version="opset1">
			<data element_type="f32" offset="71640352" shape="2,256,1,1" size="2048"/>
			<output>
				<port id="1" precision="FP32">
					<dim>2</dim>
					<dim>256</dim>
					<dim>1</dim>
					<dim>1</dim>
				</port>
			</output>
		</layer>
		<layer id="314" name="width_height515/WithoutBiases" type="Convolution" version="opset1">
			<data dilations="1,1" output_padding="0,0" pads_begin="0,0" pads_end="0,0" strides="1,1"/>
			<input>
				<port id="0">
					<dim>1</dim>
					<dim>256</dim>
					<dim>96</dim>
					<dim>96</dim>
				</port>
				<port id="1">
					<dim>2</dim>
					<dim>256</dim>
					<dim>1</dim>
					<dim>1</dim>
				</port>
			</input>
			<output>
				<port id="2" precision="FP32">
					<dim>1</dim>
					<dim>2</dim>
					<dim>96</dim>
					<dim>96</dim>
				</port>
			</output>
		</layer>
		<layer id="315" name="width_height515/Dims47048689/EltwiseUnsqueeze8804_const" type="Const" version="opset1">
			<data element_type="f32" offset="71642400" shape="1,2,1,1" size="8"/>
			<output>
				<port id="1" precision="FP32">
					<dim>1</dim>
					<dim>2</dim>
					<dim>1</dim>
					<dim>1</dim>
				</port>
			</output>
		</layer>
		<layer id="316" name="width_height" type="Add" version="opset1">
			<input>
				<port id="0">
					<dim>1</dim>
					<dim>2</dim>
					<dim>96</dim>
					<dim>96</dim>
				</port>
				<port id="1">
					<dim>1</dim>
					<dim>2</dim>
					<dim>1</dim>
					<dim>1</dim>
				</port>
			</input>
			<output>
				<port id="2" precision="FP32">
					<dim>1</dim>
					<dim>2</dim>
					<dim>96</dim>
					<dim>96</dim>
				</port>
			</output>
		</layer>
		<layer id="317" name="width_height/sink_port_0" type="Result" version="opset1">
			<input>
				<port id="0">
					<dim>1</dim>
					<dim>2</dim>
					<dim>96</dim>
					<dim>96</dim>
				</port>
			</input>
		</layer>
	</layers>
	<edges>
		<edge from-layer="0" from-port="0" to-layer="2" to-port="0"/>
		<edge from-layer="1" from-port="1" to-layer="2" to-port="1"/>
		<edge from-layer="2" from-port="2" to-layer="4" to-port="0"/>
		<edge from-layer="3" from-port="1" to-layer="4" to-port="1"/>
		<edge from-layer="4" from-port="2" to-layer="6" to-port="0"/>
		<edge from-layer="5" from-port="1" to-layer="6" to-port="1"/>
		<edge from-layer="6" from-port="2" to-layer="8" to-port="0"/>
		<edge from-layer="7" from-port="1" to-layer="8" to-port="1"/>
		<edge from-layer="8" from-port="2" to-layer="9" to-port="0"/>
		<edge from-layer="9" from-port="1" to-layer="11" to-port="0"/>
		<edge from-layer="10" from-port="1" to-layer="11" to-port="1"/>
		<edge from-layer="11" from-port="2" to-layer="13" to-port="0"/>
		<edge from-layer="12" from-port="1" to-layer="13" to-port="1"/>
		<edge from-layer="13" from-port="2" to-layer="14" to-port="0"/>
		<edge from-layer="14" from-port="1" to-layer="16" to-port="0"/>
		<edge from-layer="15" from-port="1" to-layer="16" to-port="1"/>
		<edge from-layer="16" from-port="2" to-layer="18" to-port="0"/>
		<edge from-layer="17" from-port="1" to-layer="18" to-port="1"/>
		<edge from-layer="18" from-port="2" to-layer="19" to-port="0"/>
		<edge from-layer="19" from-port="1" to-layer="21" to-port="0"/>
		<edge from-layer="20" from-port="1" to-layer="21" to-port="1"/>
		<edge from-layer="21" from-port="2" to-layer="23" to-port="0"/>
		<edge from-layer="22" from-port="1" to-layer="23" to-port="1"/>
		<edge from-layer="23" from-port="2" to-layer="24" to-port="0"/>
		<edge from-layer="24" from-port="1" to-layer="26" to-port="0"/>
		<edge from-layer="25" from-port="1" to-layer="26" to-port="1"/>
		<edge from-layer="26" from-port="2" to-layer="28" to-port="0"/>
		<edge from-layer="27" from-port="1" to-layer="28" to-port="1"/>
		<edge from-layer="19" from-port="1" to-layer="29" to-port="0"/>
		<edge from-layer="29" from-port="1" to-layer="31" to-port="0"/>
		<edge from-layer="30" from-port="1" to-layer="31" to-port="1"/>
		<edge from-layer="31" from-port="2" to-layer="33" to-port="0"/>
		<edge from-layer="32" from-port="1" to-layer="33" to-port="1"/>
		<edge from-layer="28" from-port="2" to-layer="34" to-port="0"/>
		<edge from-layer="33" from-port="2" to-layer="34" to-port="1"/>
		<edge from-layer="34" from-port="2" to-layer="35" to-port="0"/>
		<edge from-layer="35" from-port="1" to-layer="37" to-port="0"/>
		<edge from-layer="36" from-port="1" to-layer="37" to-port="1"/>
		<edge from-layer="37" from-port="2" to-layer="39" to-port="0"/>
		<edge from-layer="38" from-port="1" to-layer="39" to-port="1"/>
		<edge from-layer="39" from-port="2" to-layer="40" to-port="0"/>
		<edge from-layer="40" from-port="1" to-layer="42" to-port="0"/>
		<edge from-layer="41" from-port="1" to-layer="42" to-port="1"/>
		<edge from-layer="42" from-port="2" to-layer="44" to-port="0"/>
		<edge from-layer="43" from-port="1" to-layer="44" to-port="1"/>
		<edge from-layer="44" from-port="2" to-layer="45" to-port="0"/>
		<edge from-layer="35" from-port="1" to-layer="45" to-port="1"/>
		<edge from-layer="45" from-port="2" to-layer="46" to-port="0"/>
		<edge from-layer="46" from-port="1" to-layer="47" to-port="0"/>
		<edge from-layer="35" from-port="1" to-layer="47" to-port="1"/>
		<edge from-layer="47" from-port="2" to-layer="49" to-port="0"/>
		<edge from-layer="48" from-port="1" to-layer="49" to-port="1"/>
		<edge from-layer="49" from-port="2" to-layer="51" to-port="0"/>
		<edge from-layer="50" from-port="1" to-layer="51" to-port="1"/>
		<edge from-layer="51" from-port="2" to-layer="52" to-port="0"/>
		<edge from-layer="52" from-port="1" to-layer="54" to-port="0"/>
		<edge from-layer="53" from-port="1" to-layer="54" to-port="1"/>
		<edge from-layer="54" from-port="2" to-layer="56" to-port="0"/>
		<edge from-layer="55" from-port="1" to-layer="56" to-port="1"/>
		<edge from-layer="56" from-port="2" to-layer="57" to-port="0"/>
		<edge from-layer="57" from-port="1" to-layer="59" to-port="0"/>
		<edge from-layer="58" from-port="1" to-layer="59" to-port="1"/>
		<edge from-layer="59" from-port="2" to-layer="61" to-port="0"/>
		<edge from-layer="60" from-port="1" to-layer="61" to-port="1"/>
		<edge from-layer="52" from-port="1" to-layer="62" to-port="0"/>
		<edge from-layer="62" from-port="1" to-layer="64" to-port="0"/>
		<edge from-layer="63" from-port="1" to-layer="64" to-port="1"/>
		<edge from-layer="64" from-port="2" to-layer="66" to-port="0"/>
		<edge from-layer="65" from-port="1" to-layer="66" to-port="1"/>
		<edge from-layer="61" from-port="2" to-layer="67" to-port="0"/>
		<edge from-layer="66" from-port="2" to-layer="67" to-port="1"/>
		<edge from-layer="67" from-port="2" to-layer="68" to-port="0"/>
		<edge from-layer="68" from-port="1" to-layer="70" to-port="0"/>
		<edge from-layer="69" from-port="1" to-layer="70" to-port="1"/>
		<edge from-layer="70" from-port="2" to-layer="72" to-port="0"/>
		<edge from-layer="71" from-port="1" to-layer="72" to-port="1"/>
		<edge from-layer="72" from-port="2" to-layer="73" to-port="0"/>
		<edge from-layer="73" from-port="1" to-layer="75" to-port="0"/>
		<edge from-layer="74" from-port="1" to-layer="75" to-port="1"/>
		<edge from-layer="75" from-port="2" to-layer="77" to-port="0"/>
		<edge from-layer="76" from-port="1" to-layer="77" to-port="1"/>
		<edge from-layer="77" from-port="2" to-layer="78" to-port="0"/>
		<edge from-layer="68" from-port="1" to-layer="78" to-port="1"/>
		<edge from-layer="78" from-port="2" to-layer="79" to-port="0"/>
		<edge from-layer="79" from-port="1" to-layer="80" to-port="0"/>
		<edge from-layer="68" from-port="1" to-layer="80" to-port="1"/>
		<edge from-layer="80" from-port="2" to-layer="82" to-port="0"/>
		<edge from-layer="81" from-port="1" to-layer="82" to-port="1"/>
		<edge from-layer="82" from-port="2" to-layer="84" to-port="0"/>
		<edge from-layer="83" from-port="1" to-layer="84" to-port="1"/>
		<edge from-layer="84" from-port="2" to-layer="85" to-port="0"/>
		<edge from-layer="85" from-port="1" to-layer="87" to-port="0"/>
		<edge from-layer="86" from-port="1" to-layer="87" to-port="1"/>
		<edge from-layer="87" from-port="2" to-layer="89" to-port="0"/>
		<edge from-layer="88" from-port="1" to-layer="89" to-port="1"/>
		<edge from-layer="89" from-port="2" to-layer="90" to-port="0"/>
		<edge from-layer="90" from-port="1" to-layer="92" to-port="0"/>
		<edge from-layer="91" from-port="1" to-layer="92" to-port="1"/>
		<edge from-layer="92" from-port="2" to-layer="94" to-port="0"/>
		<edge from-layer="93" from-port="1" to-layer="94" to-port="1"/>
		<edge from-layer="94" from-port="2" to-layer="95" to-port="0"/>
		<edge from-layer="85" from-port="1" to-layer="95" to-port="1"/>
		<edge from-layer="95" from-port="2" to-layer="96" to-port="0"/>
		<edge from-layer="96" from-port="1" to-layer="98" to-port="0"/>
		<edge from-layer="97" from-port="1" to-layer="98" to-port="1"/>
		<edge from-layer="98" from-port="2" to-layer="100" to-port="0"/>
		<edge from-layer="99" from-port="1" to-layer="100" to-port="1"/>
		<edge from-layer="100" from-port="2" to-layer="101" to-port="0"/>
		<edge from-layer="101" from-port="1" to-layer="103" to-port="0"/>
		<edge from-layer="102" from-port="1" to-layer="103" to-port="1"/>
		<edge from-layer="103" from-port="2" to-layer="105" to-port="0"/>
		<edge from-layer="104" from-port="1" to-layer="105" to-port="1"/>
		<edge from-layer="105" from-port="2" to-layer="106" to-port="0"/>
		<edge from-layer="96" from-port="1" to-layer="106" to-port="1"/>
		<edge from-layer="106" from-port="2" to-layer="107" to-port="0"/>
		<edge from-layer="52" from-port="1" to-layer="108" to-port="0"/>
		<edge from-layer="107" from-port="1" to-layer="109" to-port="0"/>
		<edge from-layer="96" from-port="1" to-layer="109" to-port="1"/>
		<edge from-layer="108" from-port="1" to-layer="109" to-port="2"/>
		<edge from-layer="85" from-port="1" to-layer="109" to-port="3"/>
		<edge from-layer="109" from-port="4" to-layer="111" to-port="0"/>
		<edge from-layer="110" from-port="1" to-layer="111" to-port="1"/>
		<edge from-layer="111" from-port="2" to-layer="113" to-port="0"/>
		<edge from-layer="112" from-port="1" to-layer="113" to-port="1"/>
		<edge from-layer="113" from-port="2" to-layer="114" to-port="0"/>
		<edge from-layer="114" from-port="1" to-layer="116" to-port="0"/>
		<edge from-layer="115" from-port="1" to-layer="116" to-port="1"/>
		<edge from-layer="116" from-port="2" to-layer="118" to-port="0"/>
		<edge from-layer="117" from-port="1" to-layer="118" to-port="1"/>
		<edge from-layer="118" from-port="2" to-layer="119" to-port="0"/>
		<edge from-layer="119" from-port="1" to-layer="121" to-port="0"/>
		<edge from-layer="120" from-port="1" to-layer="121" to-port="1"/>
		<edge from-layer="52" from-port="1" to-layer="122" to-port="0"/>
		<edge from-layer="121" from-port="2" to-layer="122" to-port="1"/>
		<edge from-layer="122" from-port="2" to-layer="124" to-port="0"/>
		<edge from-layer="123" from-port="1" to-layer="124" to-port="1"/>
		<edge from-layer="124" from-port="2" to-layer="126" to-port="0"/>
		<edge from-layer="125" from-port="1" to-layer="126" to-port="1"/>
		<edge from-layer="126" from-port="2" to-layer="127" to-port="0"/>
		<edge from-layer="114" from-port="1" to-layer="129" to-port="0"/>
		<edge from-layer="128" from-port="1" to-layer="129" to-port="1"/>
		<edge from-layer="129" from-port="2" to-layer="131" to-port="0"/>
		<edge from-layer="130" from-port="1" to-layer="131" to-port="1"/>
		<edge from-layer="131" from-port="2" to-layer="132" to-port="0"/>
		<edge from-layer="132" from-port="1" to-layer="134" to-port="0"/>
		<edge from-layer="133" from-port="1" to-layer="134" to-port="1"/>
		<edge from-layer="134" from-port="2" to-layer="136" to-port="0"/>
		<edge from-layer="135" from-port="1" to-layer="136" to-port="1"/>
		<edge from-layer="114" from-port="1" to-layer="137" to-port="0"/>
		<edge from-layer="137" from-port="1" to-layer="139" to-port="0"/>
		<edge from-layer="138" from-port="1" to-layer="139" to-port="1"/>
		<edge from-layer="139" from-port="2" to-layer="141" to-port="0"/>
		<edge from-layer="140" from-port="1" to-layer="141" to-port="1"/>
		<edge from-layer="136" from-port="2" to-layer="142" to-port="0"/>
		<edge from-layer="141" from-port="2" to-layer="142" to-port="1"/>
		<edge from-layer="142" from-port="2" to-layer="143" to-port="0"/>
		<edge from-layer="143" from-port="1" to-layer="145" to-port="0"/>
		<edge from-layer="144" from-port="1" to-layer="145" to-port="1"/>
		<edge from-layer="145" from-port="2" to-layer="147" to-port="0"/>
		<edge from-layer="146" from-port="1" to-layer="147" to-port="1"/>
		<edge from-layer="147" from-port="2" to-layer="148" to-port="0"/>
		<edge from-layer="148" from-port="1" to-layer="150" to-port="0"/>
		<edge from-layer="149" from-port="1" to-layer="150" to-port="1"/>
		<edge from-layer="150" from-port="2" to-layer="152" to-port="0"/>
		<edge from-layer="151" from-port="1" to-layer="152" to-port="1"/>
		<edge from-layer="152" from-port="2" to-layer="153" to-port="0"/>
		<edge from-layer="143" from-port="1" to-layer="153" to-port="1"/>
		<edge from-layer="153" from-port="2" to-layer="154" to-port="0"/>
		<edge from-layer="154" from-port="1" to-layer="155" to-port="0"/>
		<edge from-layer="143" from-port="1" to-layer="155" to-port="1"/>
		<edge from-layer="155" from-port="2" to-layer="157" to-port="0"/>
		<edge from-layer="156" from-port="1" to-layer="157" to-port="1"/>
		<edge from-layer="157" from-port="2" to-layer="159" to-port="0"/>
		<edge from-layer="158" from-port="1" to-layer="159" to-port="1"/>
		<edge from-layer="159" from-port="2" to-layer="160" to-port="0"/>
		<edge from-layer="160" from-port="1" to-layer="162" to-port="0"/>
		<edge from-layer="161" from-port="1" to-layer="162" to-port="1"/>
		<edge from-layer="162" from-port="2" to-layer="164" to-port="0"/>
		<edge from-layer="163" from-port="1" to-layer="164" to-port="1"/>
		<edge from-layer="164" from-port="2" to-layer="165" to-port="0"/>
		<edge from-layer="165" from-port="1" to-layer="167" to-port="0"/>
		<edge from-layer="166" from-port="1" to-layer="167" to-port="1"/>
		<edge from-layer="167" from-port="2" to-layer="169" to-port="0"/>
		<edge from-layer="168" from-port="1" to-layer="169" to-port="1"/>
		<edge from-layer="169" from-port="2" to-layer="170" to-port="0"/>
		<edge from-layer="160" from-port="1" to-layer="170" to-port="1"/>
		<edge from-layer="170" from-port="2" to-layer="171" to-port="0"/>
		<edge from-layer="171" from-port="1" to-layer="173" to-port="0"/>
		<edge from-layer="172" from-port="1" to-layer="173" to-port="1"/>
		<edge from-layer="173" from-port="2" to-layer="175" to-port="0"/>
		<edge from-layer="174" from-port="1" to-layer="175" to-port="1"/>
		<edge from-layer="175" from-port="2" to-layer="176" to-port="0"/>
		<edge from-layer="176" from-port="1" to-layer="178" to-port="0"/>
		<edge from-layer="177" from-port="1" to-layer="178" to-port="1"/>
		<edge from-layer="178" from-port="2" to-layer="180" to-port="0"/>
		<edge from-layer="179" from-port="1" to-layer="180" to-port="1"/>
		<edge from-layer="180" from-port="2" to-layer="181" to-port="0"/>
		<edge from-layer="171" from-port="1" to-layer="181" to-port="1"/>
		<edge from-layer="181" from-port="2" to-layer="182" to-port="0"/>
		<edge from-layer="114" from-port="1" to-layer="183" to-port="0"/>
		<edge from-layer="182" from-port="1" to-layer="184" to-port="0"/>
		<edge from-layer="171" from-port="1" to-layer="184" to-port="1"/>
		<edge from-layer="183" from-port="1" to-layer="184" to-port="2"/>
		<edge from-layer="160" from-port="1" to-layer="184" to-port="3"/>
		<edge from-layer="184" from-port="4" to-layer="186" to-port="0"/>
		<edge from-layer="185" from-port="1" to-layer="186" to-port="1"/>
		<edge from-layer="186" from-port="2" to-layer="188" to-port="0"/>
		<edge from-layer="187" from-port="1" to-layer="188" to-port="1"/>
		<edge from-layer="188" from-port="2" to-layer="189" to-port="0"/>
		<edge from-layer="189" from-port="1" to-layer="191" to-port="0"/>
		<edge from-layer="190" from-port="1" to-layer="191" to-port="1"/>
		<edge from-layer="191" from-port="2" to-layer="193" to-port="0"/>
		<edge from-layer="192" from-port="1" to-layer="193" to-port="1"/>
		<edge from-layer="193" from-port="2" to-layer="194" to-port="0"/>
		<edge from-layer="194" from-port="1" to-layer="196" to-port="0"/>
		<edge from-layer="195" from-port="1" to-layer="196" to-port="1"/>
		<edge from-layer="114" from-port="1" to-layer="197" to-port="0"/>
		<edge from-layer="196" from-port="2" to-layer="197" to-port="1"/>
		<edge from-layer="197" from-port="2" to-layer="199" to-port="0"/>
		<edge from-layer="198" from-port="1" to-layer="199" to-port="1"/>
		<edge from-layer="199" from-port="2" to-layer="201" to-port="0"/>
		<edge from-layer="200" from-port="1" to-layer="201" to-port="1"/>
		<edge from-layer="201" from-port="2" to-layer="202" to-port="0"/>
		<edge from-layer="202" from-port="1" to-layer="204" to-port="0"/>
		<edge from-layer="203" from-port="1" to-layer="204" to-port="1"/>
		<edge from-layer="204" from-port="2" to-layer="206" to-port="0"/>
		<edge from-layer="205" from-port="1" to-layer="206" to-port="1"/>
		<edge from-layer="206" from-port="2" to-layer="207" to-port="0"/>
		<edge from-layer="207" from-port="1" to-layer="209" to-port="0"/>
		<edge from-layer="208" from-port="1" to-layer="209" to-port="1"/>
		<edge from-layer="127" from-port="1" to-layer="210" to-port="0"/>
		<edge from-layer="209" from-port="2" to-layer="210" to-port="1"/>
		<edge from-layer="210" from-port="2" to-layer="212" to-port="0"/>
		<edge from-layer="211" from-port="1" to-layer="212" to-port="1"/>
		<edge from-layer="212" from-port="2" to-layer="214" to-port="0"/>
		<edge from-layer="213" from-port="1" to-layer="214" to-port="1"/>
		<edge from-layer="214" from-port="2" to-layer="215" to-port="0"/>
		<edge from-layer="189" from-port="1" to-layer="217" to-port="0"/>
		<edge from-layer="216" from-port="1" to-layer="217" to-port="1"/>
		<edge from-layer="217" from-port="2" to-layer="219" to-port="0"/>
		<edge from-layer="218" from-port="1" to-layer="219" to-port="1"/>
		<edge from-layer="219" from-port="2" to-layer="220" to-port="0"/>
		<edge from-layer="220" from-port="1" to-layer="222" to-port="0"/>
		<edge from-layer="221" from-port="1" to-layer="222" to-port="1"/>
		<edge from-layer="222" from-port="2" to-layer="224" to-port="0"/>
		<edge from-layer="223" from-port="1" to-layer="224" to-port="1"/>
		<edge from-layer="189" from-port="1" to-layer="225" to-port="0"/>
		<edge from-layer="225" from-port="1" to-layer="227" to-port="0"/>
		<edge from-layer="226" from-port="1" to-layer="227" to-port="1"/>
		<edge from-layer="227" from-port="2" to-layer="229" to-port="0"/>
		<edge from-layer="228" from-port="1" to-layer="229" to-port="1"/>
		<edge from-layer="224" from-port="2" to-layer="230" to-port="0"/>
		<edge from-layer="229" from-port="2" to-layer="230" to-port="1"/>
		<edge from-layer="230" from-port="2" to-layer="231" to-port="0"/>
		<edge from-layer="231" from-port="1" to-layer="233" to-port="0"/>
		<edge from-layer="232" from-port="1" to-layer="233" to-port="1"/>
		<edge from-layer="233" from-port="2" to-layer="235" to-port="0"/>
		<edge from-layer="234" from-port="1" to-layer="235" to-port="1"/>
		<edge from-layer="235" from-port="2" to-layer="236" to-port="0"/>
		<edge from-layer="236" from-port="1" to-layer="238" to-port="0"/>
		<edge from-layer="237" from-port="1" to-layer="238" to-port="1"/>
		<edge from-layer="238" from-port="2" to-layer="240" to-port="0"/>
		<edge from-layer="239" from-port="1" to-layer="240" to-port="1"/>
		<edge from-layer="240" from-port="2" to-layer="241" to-port="0"/>
		<edge from-layer="231" from-port="1" to-layer="241" to-port="1"/>
		<edge from-layer="241" from-port="2" to-layer="242" to-port="0"/>
		<edge from-layer="242" from-port="1" to-layer="243" to-port="0"/>
		<edge from-layer="231" from-port="1" to-layer="243" to-port="1"/>
		<edge from-layer="225" from-port="1" to-layer="243" to-port="2"/>
		<edge from-layer="243" from-port="3" to-layer="245" to-port="0"/>
		<edge from-layer="244" from-port="1" to-layer="245" to-port="1"/>
		<edge from-layer="245" from-port="2" to-layer="247" to-port="0"/>
		<edge from-layer="246" from-port="1" to-layer="247" to-port="1"/>
		<edge from-layer="247" from-port="2" to-layer="248" to-port="0"/>
		<edge from-layer="248" from-port="1" to-layer="250" to-port="0"/>
		<edge from-layer="249" from-port="1" to-layer="250" to-port="1"/>
		<edge from-layer="250" from-port="2" to-layer="252" to-port="0"/>
		<edge from-layer="251" from-port="1" to-layer="252" to-port="1"/>
		<edge from-layer="252" from-port="2" to-layer="253" to-port="0"/>
		<edge from-layer="253" from-port="1" to-layer="255" to-port="0"/>
		<edge from-layer="254" from-port="1" to-layer="255" to-port="1"/>
		<edge from-layer="189" from-port="1" to-layer="256" to-port="0"/>
		<edge from-layer="255" from-port="2" to-layer="256" to-port="1"/>
		<edge from-layer="256" from-port="2" to-layer="258" to-port="0"/>
		<edge from-layer="257" from-port="1" to-layer="258" to-port="1"/>
		<edge from-layer="258" from-port="2" to-layer="260" to-port="0"/>
		<edge from-layer="259" from-port="1" to-layer="260" to-port="1"/>
		<edge from-layer="260" from-port="2" to-layer="261" to-port="0"/>
		<edge from-layer="261" from-port="1" to-layer="263" to-port="0"/>
		<edge from-layer="262" from-port="1" to-layer="263" to-port="1"/>
		<edge from-layer="263" from-port="2" to-layer="265" to-port="0"/>
		<edge from-layer="264" from-port="1" to-layer="265" to-port="1"/>
		<edge from-layer="265" from-port="2" to-layer="266" to-port="0"/>
		<edge from-layer="266" from-port="1" to-layer="268" to-port="0"/>
		<edge from-layer="267" from-port="1" to-layer="268" to-port="1"/>
		<edge from-layer="202" from-port="1" to-layer="269" to-port="0"/>
		<edge from-layer="268" from-port="2" to-layer="269" to-port="1"/>
		<edge from-layer="269" from-port="2" to-layer="271" to-port="0"/>
		<edge from-layer="270" from-port="1" to-layer="271" to-port="1"/>
		<edge from-layer="271" from-port="2" to-layer="273" to-port="0"/>
		<edge from-layer="272" from-port="1" to-layer="273" to-port="1"/>
		<edge from-layer="273" from-port="2" to-layer="274" to-port="0"/>
		<edge from-layer="274" from-port="1" to-layer="276" to-port="0"/>
		<edge from-layer="275" from-port="1" to-layer="276" to-port="1"/>
		<edge from-layer="276" from-port="2" to-layer="278" to-port="0"/>
		<edge from-layer="277" from-port="1" to-layer="278" to-port="1"/>
		<edge from-layer="278" from-port="2" to-layer="279" to-port="0"/>
		<edge from-layer="279" from-port="1" to-layer="281" to-port="0"/>
		<edge from-layer="280" from-port="1" to-layer="281" to-port="1"/>
		<edge from-layer="215" from-port="1" to-layer="282" to-port="0"/>
		<edge from-layer="281" from-port="2" to-layer="282" to-port="1"/>
		<edge from-layer="282" from-port="2" to-layer="284" to-port="0"/>
		<edge from-layer="283" from-port="1" to-layer="284" to-port="1"/>
		<edge from-layer="284" from-port="2" to-layer="286" to-port="0"/>
		<edge from-layer="285" from-port="1" to-layer="286" to-port="1"/>
		<edge from-layer="286" from-port="2" to-layer="287" to-port="0"/>
		<edge from-layer="287" from-port="1" to-layer="289" to-port="0"/>
		<edge from-layer="288" from-port="1" to-layer="289" to-port="1"/>
		<edge from-layer="289" from-port="2" to-layer="291" to-port="0"/>
		<edge from-layer="290" from-port="1" to-layer="291" to-port="1"/>
		<edge from-layer="291" from-port="2" to-layer="292" to-port="0"/>
		<edge from-layer="292" from-port="1" to-layer="294" to-port="0"/>
		<edge from-layer="293" from-port="1" to-layer="294" to-port="1"/>
		<edge from-layer="294" from-port="2" to-layer="296" to-port="0"/>
		<edge from-layer="295" from-port="1" to-layer="296" to-port="1"/>
		<edge from-layer="296" from-port="2" to-layer="297" to-port="0"/>
		<edge from-layer="287" from-port="1" to-layer="299" to-port="0"/>
		<edge from-layer="298" from-port="1" to-layer="299" to-port="1"/>
		<edge from-layer="299" from-port="2" to-layer="301" to-port="0"/>
		<edge from-layer="300" from-port="1" to-layer="301" to-port="1"/>
		<edge from-layer="301" from-port="2" to-layer="302" to-port="0"/>
		<edge from-layer="302" from-port="1" to-layer="304" to-port="0"/>
		<edge from-layer="303" from-port="1" to-layer="304" to-port="1"/>
		<edge from-layer="304" from-port="2" to-layer="306" to-port="0"/>
		<edge from-layer="305" from-port="1" to-layer="306" to-port="1"/>
		<edge from-layer="306" from-port="2" to-layer="307" to-port="0"/>
		<edge from-layer="287" from-port="1" to-layer="309" to-port="0"/>
		<edge from-layer="308" from-port="1" to-layer="309" to-port="1"/>
		<edge from-layer="309" from-port="2" to-layer="311" to-port="0"/>
		<edge from-layer="310" from-port="1" to-layer="311" to-port="1"/>
		<edge from-layer="311" from-port="2" to-layer="312" to-port="0"/>
		<edge from-layer="312" from-port="1" to-layer="314" to-port="0"/>
		<edge from-layer="313" from-port="1" to-layer="314" to-port="1"/>
		<edge from-layer="314" from-port="2" to-layer="316" to-port="0"/>
		<edge from-layer="315" from-port="1" to-layer="316" to-port="1"/>
		<edge from-layer="316" from-port="2" to-layer="317" to-port="0"/>
	</edges>
	<meta_data>
		<MO_version value="2021.2.0-1877-176bdf51370-releases/2021/2"/>
		<cli_parameters>
			<caffe_parser_path value="DIR"/>
			<data_type value="FP32"/>
			<disable_nhwc_to_nchw value="False"/>
			<disable_omitting_optional value="False"/>
			<disable_resnet_optimization value="False"/>
			<disable_weights_compression value="False"/>
			<enable_concat_optimization value="False"/>
			<enable_flattening_nested_params value="False"/>
			<enable_ssd_gluoncv value="False"/>
			<extensions value="DIR"/>
			<framework value="onnx"/>
			<freeze_placeholder_with_value value="{}"/>
			<generate_deprecated_IR_V7 value="False"/>
			<input value="input.1"/>
			<input_model value="DIR\ctdet_coco_dlav0_384.onnx"/>
			<input_model_is_text value="False"/>
			<input_shape value="[1,3,384,384]"/>
			<k value="DIR\CustomLayersMapping.xml"/>
			<keep_shape_ops value="True"/>
			<legacy_mxnet_model value="False"/>
			<log_level value="ERROR"/>
			<mean_scale_values value="{'input.1': {'mean': array([104.04 , 113.985, 119.85 ]), 'scale': array([73.695, 69.87 , 70.89 ])}}"/>
			<mean_values value="input.1[104.04, 113.985, 119.85]"/>
			<model_name value="ctdet_coco_dlav0_384"/>
			<output value="['center_heatmap', 'width_height', 'regression']"/>
			<output_dir value="DIR"/>
			<placeholder_data_types value="{}"/>
			<placeholder_shapes value="{'input.1': array([  1,   3, 384, 384], dtype=int64)}"/>
			<progress value="False"/>
			<remove_memory value="False"/>
			<remove_output_softmax value="False"/>
			<reverse_input_channels value="False"/>
			<save_params_from_nd value="False"/>
			<scale_values value="input.1[73.695, 69.87, 70.89]"/>
			<silent value="False"/>
			<static_shape value="False"/>
			<stream_output value="False"/>
			<unset unset_cli_parameters="batch, counts, disable_fusing, disable_gfusing, finegrain_fusing, input_checkpoint, input_meta_graph, input_proto, input_symbol, mean_file, mean_file_offsets, move_to_preprocess, nd_prefix_name, pretrained_model_name, saved_model_dir, saved_model_tags, scale, tensorboard_logdir, tensorflow_custom_layer_libraries, tensorflow_custom_operations_config_update, tensorflow_object_detection_api_pipeline_config, tensorflow_use_custom_operations_config, transformations_config"/>
		</cli_parameters>
	</meta_data>
</net>
